android/app/src/main/assets/models/eindr_complete.tflite (tflite, 21696 bytes, 13 tensors)

arith.constant3 f4 [1, 20]
0.43307048 0.040927775 -0.18509787 -0.32537687 -0.50152093 0.31974426 0.49722704 0.041951686
-0.24757218 0.0484464 0.53249264 -0.29672843 -0.4176714 0.321167 -0.16013929 0.46117043
0.13491136 0.51881766 0.4612803 -0.4177558
00000000: 6abb dd3e e2a3 273d 4c8a 3dbe cc97 a6be
00000010: ad63 00bf 85b5 a33e 8b94 fe3e 88d5 2b3d
00000020: 9083 7dbe bb6f 463d 7051 083f caec 97be
00000030: 07d9 d5be 0070 a43e 8efb 23be 881e ec3e
00000040: 3426 0a3e 3cd1 043f ee2c ec3e 17e4 d5be

net/strided_slice_6 f4 [20]
0.05579132 -0.006952336 -0.07368386 0.020323485 0.08753452 0.0074228346 -0.082568645 0.07806941
0.08676489 0.10789893 0.072904065 -0.076399356 0.08489891 -0.04805817 0.05776072 0.09405197
-0.014826443 0.019682068 0.057226583 -0.052009184
00000000: 7085 643d 6cd0 e3bb 90e7 96bd 707d a63c
00000010: 4c45 b33d 403b f33b c019 a9bd dbe2 9f3d
00000020: cab1 b13d 1dfa dc3d ba4e 953d 4477 9cbd
00000030: 7bdf ad3d a5d8 44bd 8196 6c3d 529e c03d
00000040: 9cea 72bc 4a3c a13c 6c66 6a3d 9507 55bd

net/strided_slice_7 f4 [20]
0.069307595 0.09365113 0.08239297 -0.022760756 0.09904462 0.030978363 -0.070759386 0.057318546
0.094228074 0.011105785 0.063734956 0.09207398 0.088698596 0.10708309 0.104552925 0.08893073
0.1149856 -0.059345555 0.0014059155 0.007965814
00000000: 24f1 8d3d 2acc bf3d a5bd a83d c474 babc
00000010: e8d7 ca3d 56c6 fd3c 4cea 90bd dac6 6a3d
00000020: a6fa c03d 0af5 353c 7987 823d 4891 bc3d
00000030: 9ca7 b53d 614e db3d d81f d63d 5121 b63d
00000040: 927d eb3d 5314 73bd b246 b83a 0c83 023c

net/strided_slice_8 f4 [20]
-0.08605492 -0.101393975 0.10542341 0.05258567 0.089332424 -0.028430162 -0.07696951 -0.08032889
0.09250131 -0.09623722 -0.08965597 0.08244233 0.08598169 -0.094145365 0.0987194 -0.09262775
-0.10967707 -0.0873103 -0.08705256 0.09014049
00000000: 903d b0bd a5a7 cfbd 3be8 d73d 1264 573d
00000010: ebf3 b63d 5fe6 e8bc 31a2 9dbd 7983 a4bd
00000020: 5471 bd3d 0518 c5bd 8d9d b7bd 86d7 a83d
00000030: 2b17 b03d 49cf c0bd 662d ca3d 9eb3 bdbd
00000040: 5f9e e0bd becf b2bd 9d48 b2bd 949b b83d

net/strided_slice_61 f4 [20]
0.05579132 -0.006952336 -0.07368386 0.020323485 0.08753452 0.0074228346 -0.082568645 0.07806941
0.08676489 0.10789893 0.072904065 -0.076399356 0.08489891 -0.04805817 0.05776072 0.09405197
-0.014826443 0.019682068 0.057226583 -0.052009184
00000000: 7085 643d 6cd0 e3bb 90e7 96bd 707d a63c
00000010: 4c45 b33d 403b f33b c019 a9bd dbe2 9f3d
00000020: cab1 b13d 1dfa dc3d ba4e 953d 4477 9cbd
00000030: 7bdf ad3d a5d8 44bd 8196 6c3d 529e c03d
00000040: 9cea 72bc 4a3c a13c 6c66 6a3d 9507 55bd

net/strided_slice_81 f4 [20]
-0.08605492 -0.101393975 0.10542341 0.05258567 0.089332424 -0.028430162 -0.07696951 -0.08032889
0.09250131 -0.09623722 -0.08965597 0.08244233 0.08598169 -0.094145365 0.0987194 -0.09262775
-0.10967707 -0.0873103 -0.08705256 0.09014049
00000000: 903d b0bd a5a7 cfbd 3be8 d73d 1264 573d
00000010: ebf3 b63d 5fe6 e8bc 31a2 9dbd 7983 a4bd
00000020: 5471 bd3d 0518 c5bd 8d9d b7bd 86d7 a83d
00000030: 2b17 b03d 49cf c0bd 662d ca3d 9eb3 bdbd
00000040: 5f9e e0bd becf b2bd 9d48 b2bd 949b b83d

net/strided_slice_71 f4 [20]
0.069307595 0.09365113 0.08239297 -0.022760756 0.09904462 0.030978363 -0.070759386 0.057318546
0.094228074 0.011105785 0.063734956 0.09207398 0.088698596 0.10708309 0.104552925 0.08893073
0.1149856 -0.059345555 0.0014059155 0.007965814
00000000: 24f1 8d3d 2acc bf3d a5bd a83d c474 babc
00000010: e8d7 ca3d 56c6 fd3c 4cea 90bd dac6 6a3d
00000020: a6fa c03d 0af5 353c 7987 823d 4891 bc3d
00000030: 9ca7 b53d 614e db3d d81f d63d 5121 b63d
00000040: 927d eb3d 5314 73bd b246 b83a 0c83 023c

arith.constant16 f4 [20, 13]
-0.16306937 0.082307644 -0.20757933 0.25195044 0.058045503 0.0027377917 0.25091705 -0.028779775
-0.017176358 0.11992402 -0.35148704 -0.30101162 -0.028356532 -0.1538671 0.040564004 -0.17031723
-0.11268897 0.035685595 0.008519669 0.029464938 -0.20131113 0.027852638 -0.2132232 -0.12093866
-0.06322495 -0.13006024 0.2132872 -0.15993711 -0.03938509 0.14393362 0.17759165 0.061060686
0.23777753 0.012556436 0.19381094 0.15671922 0.10020423 0.20634046 -0.10739891 -0.20698003
-0.029870072 0.21206857 0.3154502 -0.30684668 0.08918124 0.36781868 0.033508737 -0.2552806
-0.18135917 -0.14169766 -0.0018793845 -0.101988524 -0.017836066 -0.009039446 -0.19820833 0.28699273
0.14573897 -0.11004038 -0.17474508 -0.13617931 -0.31648684 0.11126456 -0.09502623 -0.10946166
0.28752196 0.04487704 0.11494618 0.05611672 -0.071528845 -0.25343865 0.1298151 0.10328293
0.1614076 0.007406542 -0.1750413 0.21382572 0.047604673 -0.2237639 -0.04564974 0.06592902
-0.17140327 -0.13412759 -0.19155334 0.25324076 -0.19804633 0.11948324 -0.19513023 -0.008580163
-0.23525786 -0.13729422 -0.12768891 0.18145438 -0.018292286 0.020051949 -0.02120026 0.14612716
0.30187535 -0.28141367 -0.1560793 0.1384632 0.13518292 0.36599833 -0.049419485 -0.2039933
0.20344345 -0.054894168 0.06466154 0.22063383 -0.08945937 -0.21773966 0.30811813 0.117922366
0.08619972 -0.16422343 0.15307385 -0.16020983 -0.2831171 0.015583008 0.044798017 0.31447515
0.345826 -0.025329845 -0.2198806 0.1093969 0.34458378 0.16091737 0.26769817 -0.0593828
0.1643724 0.31576568 -0.07405175 -0.017352557 -0.24915518 -0.28493932 -0.15789507 0.1900711
0.29552972 -0.18581448 0.051682327 0.21769145 -0.23993851 -0.012602064 -0.19217221 -0.2083286
0.0008776126 -0.013079669 -0.20492236 -0.32549107 -0.09846717 0.17738584 0.11952551 -0.16684134
-0.029398555 0.14666088 0.023040274 0.0022533138 0.23527515 0.25893387 0.04687447 0.17496997
0.36523113 0.3163541 -0.014636698 -0.025986511 0.18792987 -0.30047294 -0.096020594 -0.108794846
0.035589844 -0.009984026 0.059841722 0.0708714 -0.039240696 -0.033701025 0.048776902 -0.04888906
0.19496967 -0.11433363 0.1621405 0.069212176 0.23399524 0.11368342 0.014177546 0.20485114
-0.2605887 0.27254486 -0.22262506 0.18388978 -0.05684634 -0.010409602 0.29873395 0.3500753
0.20827766 0.024587821 0.15347241 0.03583926 0.07860876 -0.15213346 0.2387075 0.18890578
0.021589255 -0.12831722 0.15115319 -0.00044489 0.28523803 0.26732472 0.20646872 0.17478393
-0.08519368 0.2787353 -0.12277673 0.16618234 0.30153263 0.019868514 -0.11873015 0.011471038
-0.3062012 0.17254671 -0.17751049 -0.097287744 -0.107979044 0.06343897 -0.27872178 -0.18350299
-0.103779346 -0.14295372 -0.09351188 0.21471247 0.14159384 0.25012285 0.050663967 -0.26239958
0.14518481 0.22283654 -0.108418725 0.104885355 -0.31895348 -0.3380596 0.130066 -0.16922979
0.07723959 -0.066328436 -0.25459152 0.103813246 0.32130527 0.03502973 0.13051437 0.11378577
0.07615254 -0.043036923 0.04303328 -0.24918143 -0.057725362 -0.3339831 -0.0628363 -0.11519748
00000000: a8fb 26be e990 a83d ad8f 54be a6ff 803e
00000010: 1fc1 6d3d 866c 333b 3378 803e 90c3 ebbc
00000020: 6fb5 8cbc b99a f53d 1cf6 b3be 321e 9abe
00000030: f54b e8bc 568f 1dbe 7126 263d a467 2ebe
00000040: 7ac9 e6bd 0f2b 123d 1596 0b3c 7460 f13c
00000050: 8124 4ebe 372b e43c 2f57 5abe b0ae f7bd
00000060: 157c 81bd 832e 05be f667 5a3e 8ec6 23be
00000070: 4352 21bd 5663 133e 96da 353e c51a 7a3d
00000080: f47b 733e 82b9 4d3c 6076 463e 017b 203e
00000090: e037 cd3d ea4a 533e f6f3 dbbd 93f2 53be
000000a0: 15b2 f4bc 8128 593e b082 a13e 021b 9dbe
000000b0: a7a4 b63d bb52 bc3e 7540 093d 24b4 82be
000000c0: 38b6 39be 3119 11be ae55 f6ba 5cdf d0bd
000000d0: f11c 92bc 2f1a 14bc 20f7 4abe b6f0 923e
000000e0: 993c 153e da5c e1bd 60f0 32be 9772 0bbe
000000f0: 900a a2be acde e33d 1d9d c2bd 6f2d e0bd
00000100: 1436 933e fdd0 373d e768 eb3d a5da 653d
00000110: b77d 92bd b6c2 81be 40ee 043e 0086 d33d
00000120: 0948 253e 94b2 f23b 073e 33be 21f5 5a3e
00000130: 1efd 423d 5d22 65be 39fb 3abd cb05 873d
00000140: 5784 2fbe be58 09be 8f26 44be c6a8 813e
00000150: a8cc 4abe a1b3 f43d 38d0 47be d093 0cbc
00000160: 70e7 70be db96 0cbe e2c0 02be 2dcf 393e
00000170: b4d9 95bc fc43 a43c 2bac adbc 5ca2 153e
00000180: 688f 9a3e 7415 90be 41d3 1fbe 4cc9 0d3e
00000190: 646d 0a3e 2264 bb3e 166c 4abd 9fe3 50be
000001a0: 7b53 503e b5d8 60bd 456d 843d d6ed 613e
000001b0: 7936 b7bd 25f7 5ebe a9c1 9d3e 4881 f13d
000001c0: 7b89 b03d 302a 28be 64bf 1c3e 0c0e 24be
000001d0: b9f4 90be df4f 7f3c 207e 373d e302 a13e
000001e0: 1b10 b13e 8980 cfbc 6128 61be 7b0b e03d
000001f0: 496d b03e 86c7 243e bc0f 893e 613b 73bd
00000200: 3d51 283e 0aac a13e 72a8 97bd f326 8ebc
00000210: 8922 7fbe 91e3 91be 3faf 21be 00a2 423e
00000220: ac4f 973e 2746 3ebe d9b0 533d 82ea 5e3e
00000230: 71b2 75be e378 4ebc cbc8 44be 1854 55be
00000240: 960f 663a 1c4c 56bc 2bd7 51be c4a6 a6be
00000250: 28a9 c9bd a2a4 353e cac9 f43d 75d8 2abe
00000260: 3dd5 f0bc 452e 163e f5be bc3c 55ac 133b
00000270: f8eb 703e fb92 843e 72ff 3f3d 542b 333e
00000280: 93ff ba3e 2af9 a13e c3ce 6fbc aae1 d4bc
00000290: b070 403e 97d7 99be 72a6 c4bd d5cf debd
000002a0: a8c6 113d 0a94 23bc 981c 753d 0625 913d
000002b0: daba 20bd 160a 0abd 4aca 473d e53f 48bd
000002c0: 21a6 473e c027 eabd 2908 263e 1dbf 8d3d
000002d0: 739c 6f3e dad2 e83d f048 683c 7fc4 513e
000002e0: e26b 85be 008b 8b3e d3f7 63be 9a4d 3c3e
000002f0: b5d7 68bd 098d 2abc a8f3 983e 123d b33e
00000300: bd46 553e 666c c93c df27 1d3e 30cc 123d
00000310: a1fd a03d e0c8 1bbe bd6f 743e 8470 413e
00000320: f3db b03c 9765 03be e7c7 1a3e 2040 e9b9
00000330: b80a 923e c9de 883e 896c 533e 8ffa 323e
00000340: 067a aebd 65b6 8e3e 5e72 fbbd b42b 2a3e
00000350: 7c62 9a3e 4bc3 a23c cb28 f3bd 05f1 3b3c
00000360: 67c6 9cbe 16b0 303e 4fc5 35be cc3e c7bd
00000370: 1e24 ddbd 4aec 813d 9fb4 8ebe 35e8 3bbe
00000380: 448a d4bd 7662 12be 2883 bfbd 96dd 5b3e
00000390: fafd 103e 1a10 803e 0585 4f3d 3d59 86be
000003a0: 54ab 143e 432f 643e a30a debd 22ce d63d
000003b0: df4d a3be 2616 adbe 0630 053e 934a 2dbe
000003c0: ca2f 9e3d 34d7 87bd d259 82be 0a9c d43d
000003d0: 2082 a43e 567b 0f3d 8fa5 053e 8408 e93d
000003e0: ddf5 9b3d 7c47 30bd aa43 303d 6b29 7fbe
000003f0: 6e71 6cbd d5ff aabe 51b0 80bd a8ec ebbd

arith.constant17 f4 [20, 20]
-0.027053714 -0.031409457 -0.020905538 0.095255315 -0.16620885 0.16955356 -0.18282259 0.124263644
-0.09637539 -0.001163601 0.119766176 -0.26518154 0.09832458 0.25410935 0.01460081 -0.0059196474
-0.019706361 0.0046608816 0.038189568 -0.040338907 -0.121952035 0.14913596 -0.026658462 0.018757707
-0.15758185 -0.047919013 -0.39261782 0.17134021 -0.2247736 -0.049402036 0.24071056 -0.18027948
0.11133155 0.20174982 -0.060697183 0.29833627 0.19855112 0.18822326 0.05551446 -0.009817276
-0.17477754 -0.009304393 0.2148203 -0.075817384 0.23629004 0.099796884 -0.080371276 0.027879085
0.12679493 -0.1667407 -0.059071522 0.14334643 0.072911866 -0.19332275 0.059874464 -0.08658264
-0.2828204 0.12963729 0.021290733 0.07087917 -0.022664048 -0.0028019312 0.16488501 0.037229884
0.12481734 0.35631803 0.17366222 -0.27909634 0.15715492 0.14111567 0.091675386 -0.13170752
-0.009583806 -0.08705502 -0.23903653 0.20793426 0.028621277 -0.21862036 0.14772928 -0.04007131
-0.17004484 -0.13908918 -0.051372487 -0.15771008 0.0789788 -0.009715397 0.3568214 -0.060989972
0.104789704 -0.014826838 -0.04014789 0.12245512 0.015987433 -0.04588455 0.23752552 -0.023598686
-0.03057272 0.17804539 0.114834204 0.22829783 0.09833093 -0.087244816 0.119221196 0.11383309
-0.07338625 -0.049778264 0.018660182 0.088766985 0.1812099 -0.058665853 -0.046104744 -0.043615825
0.060245957 0.017182797 0.06469996 0.2924584 0.017016875 -0.06267288 -0.34012538 0.17174265
0.11710216 0.13163128 -0.053518753 0.09565881 0.14418033 0.08139849 0.05355155 0.13303134
0.20644107 0.0063173138 0.20654176 -0.078343846 -0.16301066 0.05007276 0.089414395 -0.19477029
0.07203406 0.09628648 -0.07196664 -0.08518026 0.046021294 0.20934772 -0.051656913 0.036287576
-0.102419905 -0.19354464 0.00873827 0.26133803 0.031377763 0.06331854 0.008451604 -0.123302616
0.04464044 0.021576304 -0.03726963 0.22275673 0.173183 0.039931655 0.074055806 -0.18434113
0.18441398 -0.22707328 0.09634376 -0.16625491 0.31004205 -0.070518106 0.04406133 -0.006130044
0.21893407 0.123643726 -0.0977623 0.06946792 -0.14509846 -0.15431108 0.2356839 -0.02056518
-0.014995664 0.003302339 -0.13795727 0.04256942 0.1809846 0.08679559 -0.15578593 0.036464944
-0.13048202 0.10653302 -0.006426722 -0.012158793 -0.07640853 0.0910675 0.38129798 0.042919155
0.27084914 -0.0063306433 -0.0789825 0.19134484 -0.040491536 0.014624099 0.064159684 0.01938898
-0.014000582 0.18586136 0.072580025 -0.1240078 -0.09611261 -0.085784905 -0.103608616 -0.12526262
-0.11703508 -0.020350024 0.019403882 0.24913748 -0.20264047 0.4824037 0.007926831 0.2213954
0.070335895 -0.0033173873 -0.034719497 -0.1272503 0.18987744 -0.056561407 0.25945836 0.039596133
0.15318526 0.18768129 0.056546286 -0.13302739 0.34210753 -0.27243114 -0.021982796 0.09920795
-0.04624507 0.038957164 -0.07335965 -0.09463037 -0.112351365 0.21756756 -0.11985187 0.20372123
-0.09015316 -0.3402976 0.114730075 -0.21140845 0.028116621 -0.20552991 -0.1966676 0.18539625
0.14243974 -0.015451418 0.0029580498 -0.09807451 0.11366232 0.015224913 -0.09880482 0.11667916
00000000: c09f ddbc 34a7 00bd 1742 abbc 3815 c33d
00000010: a732 2abe 739f 2d3e d835 3bbe f07d fe3d
00000020: 7660 c5bd f883 98ba f847 f53d e0c5 87be
00000030: 665e c93d 9f1a 823e 3c38 6f3c 9af9 c1bb
00000040: 3c6f a1bc 4fba 983b aa6c 1c3d 693a 25bd
00000050: fdc1 f9bd 19b7 183e d962 dabc c3a9 993c
00000060: 235d 21be ba46 44bd 3405 c9be cf73 2f3e
00000070: 0d2b 66be ca59 4abd d47c 763e 2f9b 38be
00000080: cc01 e43d 8197 4e3e 9c9d 78bd 88bf 983e
00000090: fc50 4b3e 99bd 403e 2163 633d a4d8 20bc
000000a0: e2f8 32be 7471 18bc daf9 5b3e 2546 9bbd
000000b0: 04f6 713e 4f62 cc3d b299 a4bd ae62 e43c
000000c0: 88d6 013e 13be 2abe fbf4 71bd 68c9 123e
000000d0: d152 953d 66f6 45be ed3e 753d 3d52 b1bd
000000e0: d6cd 90be a3bf 043e e769 ae3c 1929 913d
000000f0: f4a9 b9bc 9ba0 37bb 9ed7 283e 5d7e 183d
00000100: 3ca0 ff3d 516f b63e 82d4 313e b7e5 8ebe
00000110: 38ed 203e a080 103e 4ec0 bb3d 56de 06be
00000120: 6505 1dbc e749 b2bd fec5 74be b8ec 543e
00000130: 2b77 ea3c 04de 5fbe 5846 173e d021 24bd
00000140: 3c20 2ebe 656d 0ebe f56b 52bd c07e 21be
00000150: a3bf a13d 542d 1fbc 4bb1 b63e 9fd0 79bd
00000160: fc9b d63d 44ec 72bc 1d72 24bd c0c9 fa3d
00000170: 14f8 823c 70f1 3bbd e439 733e 0852 c1bc
00000180: a473 fabc 8851 363e 322e eb3d e8c6 693e
00000190: ba61 c93d 69ad b2bd 3e2a f43d 5321 e93d
000001a0: 884b 96bd 4be4 4bbd 3ddd 983c 77cb b53d
000001b0: 178f 393e 9b4b 70bd 54d8 3cbd 82a6 32bd
000001c0: 77c4 763d f0c2 8c3c 6a81 843d 1bbd 953e
000001d0: f966 8b3c a45a 80bd ea24 aebe 4edd 2f3e
000001e0: 42d3 ef3d 5aca 063e 7b36 5bbd c4e8 c33d
000001f0: 02a4 133e 40b4 a63d df58 5b3d 5e39 083e
00000200: 4a65 533e 7801 cf3b af7f 533e bd72 a0bd
00000210: 44ec 26be 1819 4d3d e51e b73d dd71 47be
00000220: 9886 933d d931 c53d 3f63 93bd fd72 aebd
00000230: d380 3c3d 405f 563e 3396 53bd 48a2 143d
00000240: 87c1 d1bd 9130 46be f62a 0f3c 19ce 853e
00000250: f885 003d 27ad 813d 9978 0a3c 1586 fcbd
00000260: e5d8 363d cac0 b03c 0aa8 18bd 571a 643e
00000270: e256 313e 608f 233d 92aa 973d ecc3 3cbe
00000280: 05d7 3c3e e685 68be e14f c53d ba3e 2abe
00000290: d5bd 9e3e cc6b 90bd a779 343d 89de c8bb
000002a0: 4130 603e ec38 fd3d 9a37 c8bd 3245 8e3d
000002b0: b194 14be b903 1ebe 1f57 713e 4f78 a8bc
000002c0: 60b0 75bc 0e6c 583b ac44 0dbe 465d 2e3d
000002d0: 0754 393e e3c1 b13d 5986 1fbe 445c 153d
000002e0: 149d 05be fc2d da3d 4097 d2bb ad35 47bc
000002f0: 137c 9cbd 9981 ba3d 7d39 c33e ffcb 2f3d
00000300: bdac 8a3e 4971 cfbb 94c1 a1bd e7ef 433e
00000310: 74da 25bd eb99 6f3c 2766 833d a3d5 9e3c
00000320: b262 65bc 7152 3e3e d6a4 943d cdf7 fdbd
00000330: b0d6 c4bd ffaf afbd c130 d4bd d844 00be
00000340: 17b0 efbd 18b5 a6bc e4f4 9e3c e51d 7f3e
00000350: fc80 4fbe 9efd f63e 8adf 013c 7ab5 623e
00000360: 440c 903d 8668 59bb 0836 0ebd e74d 02be
00000370: 3b6f 423e efac 67bd bad7 843e 8e2f 223d
00000380: 99dc 1c3e 862f 403e 149d 673d 5538 08be
00000390: b828 af3e 187c 8bbe 4415 b4bc 8a2d cb3d
000003a0: 786b 3dbd 8c91 1f3d 963d 96bd 91cd c1bd
000003b0: 7918 e6bd 08ca 5e3e e674 f5bd 4c9c 503e
000003c0: 38a2 b8bd 7d3b aebe 9af7 ea3d 757b 58be
000003d0: d454 e63c 6f76 52be 3b63 49be 84d8 3d3e
000003e0: b9db 113e f227 7dbc d7db 413b 4adb c8bd
000003f0: cac7 e83d ea71 793c 2e5a cabd 7cf5 ee3d

arith.constant18 f4 [20, 20]
-0.021118652 0.030859627 0.05067446 0.07987372 0.23458727 -0.11332077 0.32271463 -0.024622673
0.0319802 -0.009112952 0.09696206 0.08376067 -0.10666059 0.02783485 0.005454514 0.013391566
-0.18299767 0.057292648 -0.03251485 0.009290286 -0.072211176 -0.25150302 -0.016048484 -0.00027125588
0.18999638 0.03657799 -0.09500485 -0.20067877 0.011553382 0.22193961 0.014363365 0.20837186
0.1309303 -0.15552418 0.20119883 -0.085399434 -0.092317194 -0.16502154 -0.23360536 -0.33585677
-0.21486585 -0.1573037 0.21145985 -0.09162575 0.00081030175 0.027753904 0.0041324147 0.21157554
-0.009176899 0.14673437 -0.15581082 -0.17135698 0.02990063 -0.01512485 -0.02613819 -0.0023150367
-0.11007034 -0.07199003 0.1418247 0.029671598 0.12068669 0.19922589 0.09990833 -0.17933363
-0.19362815 0.08767628 -0.0067317346 0.11112868 0.14248447 0.1792645 -0.22172432 0.04710509
0.21343376 0.09086478 0.047642175 -0.006711682 0.27737728 -0.0626945 0.06336009 -0.017260296
-0.10001842 0.08096116 0.10410774 0.42164892 -0.01308367 0.18309756 -0.052378245 -0.09058182
0.20408443 -0.13670233 -0.062210113 0.19096331 -0.013517885 0.12580492 0.15973127 -0.09406351
-0.042174745 0.05050653 -0.0461379 -0.06283736 0.14851546 -0.03701026 -0.03891743 -0.22957686
0.23873416 0.15795785 -0.07993429 -0.027782913 0.18508175 -0.15748551 0.0067422707 -0.117746495
0.037384413 -0.19297774 -0.15269113 -0.03250609 0.23109436 0.048726052 -0.21133044 0.043421365
-0.013667654 0.06894298 -0.55139107 0.009898428 -0.0068265693 -0.073473044 0.015559453 -0.0211731
0.15786104 0.12094106 0.19388635 0.019915063 -0.16386724 0.4052175 0.12416256 -0.03231402
0.15733266 0.04317602 -0.07165378 -0.11250425 -0.00703162 -0.12424936 -0.07669458 -0.0055427006
0.14621463 0.19473726 0.26804402 -0.06304365 -0.03521019 0.07354742 -0.12897074 -0.07454184
-0.12082742 0.09666952 -0.2618963 -0.00794846 -0.21392201 -0.0896807 -0.2759756 -0.11872193
0.02793408 -0.040728945 0.13912576 0.21222875 -0.08378981 0.1525581 -0.016955892 0.008273655
0.13608392 0.02754162 0.13770148 -0.0147759095 -0.17739838 0.08415605 -0.25525928 -0.059931867
0.04090044 -0.02159189 -0.33424076 -0.22054802 -0.12554196 0.23801693 -0.035624273 0.036437243
-0.09268196 -0.078301705 -0.23972814 0.12122687 0.10278271 0.032768924 -0.07731384 -0.03411196
-0.08088961 0.08449647 0.06827827 -0.083994724 0.08657518 -0.088034496 0.1068074 -0.13974814
-0.38205978 0.13205843 -0.058427323 -0.03542396 0.07251555 0.16979688 -0.0021608523 0.18742114
0.028568156 -0.16444853 -0.17591655 -0.06891495 0.015285054 0.0037603108 -0.08694055 0.024970245
-0.09391 0.10033077 -0.058694396 -0.097649865 -0.042195633 0.08990082 0.2648652 0.10947315
0.14750499 0.039683662 0.087218955 0.06769626 0.017004158 -0.09754178 0.14616492 -0.08626835
0.2848934 0.03457595 0.18055664 -0.24405974 0.03388966 -0.022480534 -0.087695435 -0.1770968
-0.040692702 0.19124496 0.017625874 -0.013765845 0.21066542 -0.22345223 0.014597648 -0.19782032
0.03181124 -0.2290822 0.09694178 -0.089652106 -0.12654102 0.02916603 0.0132514825 0.22737423
00000000: 0601 adbc 54cd fc3c 0690 4f3d d594 a33d
00000010: a537 703e b814 e8bd da3a a53e 7db5 c9bc
00000020: acfd 023d 7e4e 15bc 0b94 c63d b78a ab3d
00000030: de70 dabd e905 e43c c8bb b23b 4d68 5b3c
00000040: be63 3bbe b2ab 6a3d 4b2e 05bd 4936 183c
00000050: 74e3 93bd 01c5 80be 1c78 83bc 5937 8eb9
00000060: 698e 423e cdd2 153d e791 c2bd bc7e 4dbe
00000070: 654a 3d3c 2344 633e 5254 6b3c 6f5f 553e
00000080: 9812 063e bb41 1fbe 1107 4e3e e6e5 aebd
00000090: cc10 bdbd 68fb 28be 3e36 6fbe 6bf5 abbe
000000a0: cb05 5cbe 3914 21be ee88 583e 48a6 bbbd
000000b0: 6e6a 543a 285c e33c 3569 873b 42a7 583e
000000c0: b45a 16bc 8941 163e df8c 1fbe 3478 2fbe
000000d0: 2af2 f43c 38ce 77bc c21f d6bc dfb7 17bb
000000e0: 8f6c e1bd 826f 93bd 7f3a 113e da11 f33c
000000f0: 952a f73d df01 4c3e bd9c cc3d 3ca3 37be
00000100: 7546 46be 9f8f b33d e295 dcbb 6f97 e33d
00000110: 73e7 113e 1d91 373e b30b 63be 44f1 403d
00000120: 618e 5a3e 5017 ba3d 7124 433d abed dbbb
00000130: 6504 8e3e f965 80bd efc2 813d 7765 8dbc
00000140: 75d6 ccbd f7ce a53d 7036 d53d 5ee2 d73e
00000150: e45c 56bc ed7d 3b3e 928a 56bd f682 b9bd
00000160: 82fb 503e b2fb 0bbe 08d0 7ebd e38b 433e
00000170: 1e7a 5dbc 01d3 003e 9890 233e 5fa4 c0bd
00000180: 6dbf 2cbd efdf 4e3d 18fb 3cbd e0b0 80bd
00000190: 7014 183e 1298 17bd e267 1fbd 3216 6bbe
000001a0: ba76 743e b4bf 213e 97b4 a3bd fe98 e3bc
000001b0: 1286 3d3e e243 21be 44ee dc3b 1325 f1bd
000001c0: 6620 193d f59b 45be 105b 1cbe 1b25 05bd
000001d0: 00a4 6c3e f894 473d 0267 58be 9ada 313d
000001e0: 4cee 5fbc fa31 8d3d f727 0dbf 042d 223c
000001f0: 6ab1 dfbb 0979 96bd 13ed 7e3c 3673 adbc
00000200: 53a6 213e f2af f73d 258a 463e ea24 a33c
00000210: d0cc 27be ab78 cf3e f148 fe3d b55b 04bd
00000220: d01b 213e 57d9 303d 38bf 92bd a168 e6bd
00000230: 8169 e6bb 7376 febd 0c12 9dbd 8b9f b5bb
00000240: 4ab9 153e 3469 473e 113d 893e 071d 81bd
00000250: 8f38 10bd 08a0 963d e810 04be 64a9 98bd
00000260: 5e74 f7bd abfa c53d 4617 86be 423a 02bc
00000270: 5f0e 5bbe 84aa b7bd ad4c 8dbe 7c24 f3bd
00000280: 03d6 e43c 65d3 26bd fc76 0e3e 7e52 593e
00000290: fe99 abbd 3138 1c3e 15e7 8abc 398e 073c
000002a0: 9559 0b3e f79e e13c 9e01 0d3e a816 72bc
000002b0: eca7 35be 025a ac3d 58b1 82be 1e7b 75bd
000002c0: 3887 273d 7ae1 b0bc 9b21 abbe 57d7 61be
000002d0: 128e 00be b6ba 733e c2ea 11bd 383f 153d
000002e0: 0ad0 bdbd a55c a0bd 4b7b 75be cb45 f83d
000002f0: be7f d23d b538 063d b856 9ebd fcb8 0bbd
00000300: 74a9 a5bd 7c0c ad3d 7ad5 8b3d 6d05 acbd
00000310: 544e b13d 6e4b b4bd d7bd da3d 231a 0fbe
00000320: 579d c3be 533a 073e 7d51 6fbd b718 11bd
00000330: 0883 943d 3cdf 2d3e 169d 0dbb 54eb 3f3e
00000340: c407 ea3c 3265 28be 7823 34be 4823 8dbd
00000350: 2a6e 7a3c 8c6f 763b e30d b2bd 668e cc3c
00000360: e353 c0bd 387a cd3d 8969 70bd a7fc c7bd
00000370: 54d5 2cbd ec1d b83d 699c 873e 7533 e03d
00000380: 8c0b 173e 568b 223d da9f b23d 56a4 8a3d
00000390: 4e4c 8b3c fcc3 c7bd 42ac 153e 76ad b0bd
000003a0: 8cdd 913e 839f 0d3d d7e3 383e ccea 79be
000003b0: e2cf 0a3d 1929 b8bc aa99 b3bd dd58 35be
000003c0: 64ad 26bd b8d5 433e 2364 903c 248a 61bc
000003d0: adb8 573e a9d0 64be f92a 6f3c 6991 4abe
000003e0: 814c 023d 8694 6abe 6989 c63d 869b b7bd
000003f0: f893 01be 99ed ee3c bf1c 593c cad4 683e

arith.constant19 f4 [20, 20]
0.16883874 0.09595853 -0.003780152 -0.09231132 -0.07639753 0.21283449 -0.17410487 -0.027851064
-0.056435112 -0.017626528 0.054284688 0.036047224 -0.17165658 -0.11931969 0.013062965 -0.027852274
-0.32969493 -0.09794639 0.14780155 0.20034003 -0.02377811 -0.043860722 0.27781498 -0.19453286
0.14034425 -0.056574702 -0.11417889 -0.07615742 -0.10067921 -0.1762912 0.12325311 -0.062475916
-0.075017944 0.206248 -0.16807632 -0.21225812 -0.056362186 -0.062173143 -0.022452809 0.16483296
0.035415847 -0.18643412 -0.035055663 -0.034998927 -0.111310214 -0.0036187926 0.041568704 -0.16980623
-0.020339482 -0.22465868 -0.093815215 0.2133888 -0.03255547 0.041564655 0.07565904 -0.08067886
0.2661945 -0.27619445 -0.009804825 0.19322094 0.20522119 -0.019147946 -0.13444538 0.027666653
-0.1356379 -0.19443673 0.0810287 -0.10455151 -0.05610727 -0.050826214 0.2043639 -0.1365713
0.25566775 -0.03275294 -0.009533905 0.032940295 -0.025598513 0.027906872 -0.07190189 -0.030440327
-0.16454808 -0.11377901 -0.043284822 0.3626504 -0.082057804 0.030142836 0.09591092 -0.066435054
0.074221976 -0.09019551 -0.027432848 -0.10509032 0.1351759 -0.07830167 -0.013140269 -0.18711038
-0.09539692 0.15973571 -0.23697917 0.13924116 -0.0035535083 -0.061541487 -0.0110762445 -0.024561694
-0.09826572 0.09197228 0.0900955 0.2477532 -0.23521295 -0.10830875 0.08527763 0.007950295
-0.23378439 0.03954265 0.21261662 -0.09782474 0.20581031 0.06546351 -0.08575685 -0.026751414
-0.048738357 -0.043669164 0.034032963 0.05470426 0.008360814 0.17871188 -0.02341762 -0.06564535
-0.26486072 0.1047199 -0.09110534 0.0056315954 -0.057866473 -0.11921944 0.1156225 0.28068817
0.1847056 0.21764731 -0.17763038 -0.04518706 -0.26979923 -0.1721613 -0.102044 0.032832377
0.2732166 0.1208594 1.7711893e-05 -0.028947959 0.37494472 -0.059786957 -0.003096682 0.039281107
0.010326657 -0.15589507 0.21808918 -0.032698594 0.1749608 -0.04766429 -0.100752726 -0.061380748
0.021592736 0.03817638 0.1408925 -0.14062941 0.16282062 0.21663457 0.11625104 -0.24277572
-0.13753012 -0.11367683 0.031898133 0.0045125918 0.2160069 -0.012030047 0.011173912 -0.16066392
0.10150831 0.16256829 0.10925656 -0.04810106 0.06682876 -0.21186896 -0.1360516 -0.10847673
0.0018475502 0.03924121 -0.065395 -0.10041639 -0.12218119 -0.41335812 0.1710621 0.028065367
-0.14833176 -0.12837145 0.22074428 -0.119527034 0.00038996438 0.0017231163 -0.11954215 -0.21917564
0.33361512 -0.26531705 0.12491786 0.16446449 -0.08803228 0.041471016 0.2542932 0.13379386
0.13832653 0.06827661 0.0037258873 0.038322225 -0.17476292 0.29351616 0.11278646 -0.027570674
0.022912916 -0.18042031 0.18972364 -0.016687453 0.024230871 0.14197163 -0.20124677 0.13941702
0.085284434 0.28548196 -0.057585876 0.09949201 -0.058443997 0.12395952 0.080003425 -0.008120101
-0.012089006 0.059468754 0.15599391 0.3103265 -0.35555387 0.061386947 0.10681064 0.13553262
0.09717552 0.14829235 0.18449521 -0.15531808 -0.16393411 0.16751207 0.007321627 0.05648543
-0.12794995 0.21102618 0.1933546 0.088809766 0.08739804 -0.081396066 0.20007844 0.008075693
00000000: 10e4 2c3e e885 c43d 6dbc 77bb b80d bdbd
00000010: 4f76 9cbd 49f1 593e 8c48 32be ea27 e4bc
00000020: 8128 67bd 8265 90bc 9f59 5e3d 41a6 133d
00000030: bec6 2fbe e25d f4bd 0c06 563c 742a e4bc
00000040: c6cd a8be 1e98 c8bd 4a59 173e f025 4d3e
00000050: 50ca c2bc 4da7 33bd c43d 8e3e 9f33 47be
00000060: 67b6 0f3e e0ba 67bd 9fd6 e9bd 6cf8 9bbd
00000070: e730 cebd ae85 34be 206c fc3d bfe6 7fbd
00000080: 02a3 99bd ad32 533e 331c 2cbe 315a 59be
00000090: 09dc 66bd 44a9 7ebd f4ee b7bc f9c9 283e
000000a0: 3510 113d 96e8 3ebe 8796 0fbd 095b 0fbd
000000b0: 9cf6 e3bd 4429 6dbb f243 2a3d afe1 2dbe
000000c0: fc9e a6bc ed0c 66be 3122 c0bd 9882 5a3e
000000d0: e258 05bd b33f 2a3d 20f3 9a3d f53a a5bd
000000e0: a54a 883e 5c69 8dbe 6ba4 20bc b6db 453e
000000f0: 8125 523e 27dc 9cbc 0dac 09be 2da5 e23c
00000100: a9e4 0abe 6c1a 47be 60f2 a53d 1a1f d6bd
00000110: bdd0 65bd 262f 50bd c544 513e 59d9 0bbe
00000120: e2e6 823e f227 06bd 1934 1cbc 67ec 063d
00000130: f9b3 d1bc f49c e43c 4c41 93bd fe5d f9bc
00000140: 4b7f 28be f804 e9bd 6d4b 31bd 50ad b93e
00000150: ec0d a8bd 1cee f63c f26c c43d 1a0f 88bd
00000160: b101 983d 6cb8 b8bd daba e0bc 9839 d7bd
00000170: 8d6b 0a3e a05c a0bd 484a 57bc dd99 3fbe
00000180: 765f c3bd c291 233e abaa 72be 3c95 0e3e
00000190: fae1 68bb ed12 7cbd 2379 35bc 9b35 c9bc
000001a0: 8a3f c9bd f65b bc3d fd83 b83d 04b3 7d3e
000001b0: aadb 70be fad0 ddbd 0aa6 ae3d f441 023c
000001c0: 2d65 6fbe 79f7 213d 2cb8 593e 5658 c8bd
000001d0: f0bf 523e bc11 863d 4aa1 afbd c825 dbbc
000001e0: dfa1 47bd 70de 32bd 2666 0b3d 9311 603d
000001f0: ccfb 083c 3f00 373e 4fd6 bfbc 1271 86bd
00000200: d39b 87be 6377 d63d 7095 babd 3f89 b83b
00000210: 6505 6dbd 5229 f4bd 7dcb ec3d 5cb6 8f3e
00000220: 7723 3d3e f0de 5e3e bde4 35be 1116 39bd
00000230: 2023 8abe 0d4b 30be 72fc d0bd 3e7b 063d
00000240: 0ce3 8b3e 2285 f73d 0094 9437 4524 edbc
00000250: c1f8 bf3e 2be3 74bd b4f1 4abb 3ae5 203d
00000260: 2431 293c f5a2 1fbe c552 5f3e f6ee 05bd
00000270: ed28 333e a13b 43bd 7257 cebd 616a 7bbd
00000280: 40e3 b03c d65e 1c3d 2046 103e 2801 10be
00000290: 73ba 263e 74d5 5d3e 0615 ee3d 339a 78be
000002a0: b2d4 0cbe 66cf e8bd 9ea7 023d 5dde 933b
000002b0: ea30 5d3e ad19 45bc c912 373c 1585 24be
000002c0: 97e3 cf3d 4d78 263e e7c1 df3d 9e05 45bd
000002d0: 84dd 883d 2df4 58be 1c51 0bbe 0c29 debd
000002e0: 7f29 f23a 64bb 203d d0ed 85bd 1ca7 cdbd
000002f0: 223a fabd ada3 d3be e72a 2f3e 57e9 e53c
00000300: 48e4 17be ce73 03be ca0a 623e 97ca f4bd
00000310: 2274 cc39 30da e13a 84d2 f4bd 946f 60be
00000320: 9acf aa3e a3d7 87be efd4 ff3d 6169 283e
00000330: 454a b4bd 83dd 293d b832 823e 4201 093e
00000340: 78a5 0d3e 9bd4 8b3d 042e 743b c4f7 1c3d
00000350: 0df5 32be c047 963e 96fc e63d e5db e1bc
00000360: deb3 bb3c 1ac0 38be ea46 423e 20b4 88bc
00000370: d27f c63c 0361 113e a213 4ebe 56c3 0e3e
00000380: 9ba9 ae3d b12a 923e 2bdf 6bbd 78c2 cb3d
00000390: f962 6fbd 7dde fd3d d6d8 a33d 2c0a 05bc
000003a0: f710 46bc 8295 733d debc 1f3e 1de3 9e3e
000003b0: 280b b6be e170 7b3d 89bf da3d 10c9 0a3e
000003c0: f603 c73d f3d9 173e 50ec 3c3e b40b 1fbe
000003d0: 58de 27be 4988 2b3e 42ea ef3b 445d 673d
000003e0: 5005 03be 3f17 583e c0fe 453e e5e1 b53d
000003f0: befd b23d fbb2 a6bd 5de1 4c3e e94f 043c

arith.constant20 f4 [20, 13]
-0.2480451 -0.10881054 0.22858985 0.27077478 0.23538646 0.26062167 0.11593731 0.23703527
-0.095435284 0.0470444 -0.34612206 -0.155425 0.2649559 0.12824371 0.36697444 -0.2172356
-0.04286096 -0.3126749 -0.14772691 0.28591383 0.06183859 -0.28412145 -0.10190166 0.16232269
-0.29704934 0.16940251 -0.080705695 -0.16667305 -0.27198753 -0.08317641 -0.030741192 -0.15084733
0.08906217 0.36325932 -0.19255802 -0.088352054 0.31935215 0.024069628 -0.06042532 0.17291912
0.11201364 0.20648506 -0.2155702 0.36570677 0.20503841 0.014387734 -0.22728491 0.15269545
0.2519512 0.021650096 -0.059828818 0.0705186 0.21659006 0.15000987 0.22867444 -0.19740632
-0.06762968 0.15598907 0.28877497 0.3309957 0.31304777 0.1434135 -0.07072215 0.1904464
0.031918135 0.2800045 0.07993846 0.10407016 -0.22385496 0.014348097 0.05407533 0.09505891
0.24041948 0.27979848 0.12211534 0.17971325 -0.18285301 0.1568169 -0.028674208 0.25084338
0.16402146 0.045237407 0.16285093 0.04517442 0.20967838 -0.34384438 -0.28738195 -0.2436474
-0.14123876 -0.056931403 0.21806175 0.12804252 0.028045008 -0.11024201 0.109807864 -0.044414278
0.12675881 -0.33010566 -0.29765844 0.16743872 0.10542435 0.2114896 0.091311306 0.11974129
0.08247639 0.18610682 -0.11013111 -0.23575406 -0.06860634 0.05608645 -0.1234223 0.28192735
0.2104496 0.16190621 -0.043743227 0.17021206 0.37457955 0.041156005 -0.15231195 0.18290295
0.17239648 0.097798795 -0.12379439 -0.0090354225 0.15444055 0.06421885 0.26965004 0.104247764
-0.07041211 0.2658741 -0.2778339 -0.20364837 -0.038545623 -0.2397927 -0.22292314 0.122148596
0.3417626 0.23871046 0.109383546 0.15195723 -0.20326205 -0.04893359 -0.20487696 -0.24997531
0.13567348 0.26214418 0.06524518 0.29479286 0.20443915 -0.066870555 0.20610967 -0.0195329
-0.22471231 -0.08049658 -0.24184525 -0.096106865 0.27255198 -0.22788738 -0.22117592 -0.014751982
-0.24865729 -0.25539672 -0.04841231 -0.05576801 -0.14889999 0.31483886 0.3143902 -0.25465354
0.13767563 0.091743544 0.2014297 0.12388646 -0.07621345 0.15990523 -0.16119058 0.26620105
0.15694742 0.2415388 -0.15306161 0.023185778 0.2300892 0.084498964 -0.24220741 -0.22608815
0.194074 -0.08320433 0.19359832 0.14250356 0.3592717 -0.039699372 0.046120424 -0.13462959
0.11904147 0.043916028 0.22666097 0.06775261 -0.22189158 0.25210586 -0.1386941 0.15267898
0.03306426 -0.32997915 0.19723114 0.2858209 0.19390976 -0.027248118 -0.15255581 0.1115764
-0.271531 0.13514902 0.18664461 0.09557968 0.12414497 0.18253747 -0.067944676 -0.1392862
-0.11956922 -0.14930217 0.026881538 -0.0054018945 0.15273651 -0.103387624 -0.0066697113 0.19446705
-0.008851494 -0.047496084 -0.16610786 -0.07957049 -0.016135449 0.27756172 0.2749884 -0.3466391
0.15844361 -0.10235973 0.06850618 0.11147377 -0.2590926 -0.07404568 -0.082193755 0.19070119
0.01649847 -0.0581588 -0.16707607 -0.1790878 0.21921448 0.23231338 -0.12248802 0.03500523
-0.18006986 0.06435715 -0.06159909 0.05701809 -0.3505891 0.35843158 0.16526394 -0.20497528
00000000: 89ff 7dbe 0fd8 debd 7513 6a3e fea2 8a3e
00000010: 2609 713e 3470 853e 8a70 ed3d 60b9 723e
00000020: 9373 c3bd a1b1 403d e936 b1be bb27 1fbe
00000030: 4da8 873e 5252 033e 13e4 bb3e 0273 5ebe
00000040: f98e 2fbd ed16 a0be b945 17be 4c63 923e
00000050: 764a 7d3d 5e78 91be d1b1 d0bd eb37 263e
00000060: da16 98be da77 2d3e 0749 a5bd 57ac 2abe
00000070: f341 8bbe 6558 aabd f4d4 fbbc b977 1abe
00000080: 3a66 b63d 20fd b93e ee2d 45be ecf1 b4bd
00000090: 2082 a33e ab2d c53c 8a80 77bd b611 313e
000000a0: 6867 e53d d270 533e 6fbe 5cbe eb3d bb3e
000000b0: 97f5 513e 88ba 6b3c 60bd 68be 325c 1c3e
000000c0: bfff 803e 8b5b b13c 100f 75bd 0e6c 903d
000000d0: c9c9 5d3e 309c 193e a229 6a3e e224 4abe
000000e0: 6e81 8abd 99bb 1f3e 50da 933e 4578 a93e
000000f0: cc47 a03e fdda 123e c6d6 90bd 6204 433e
00000100: 97bc 023d c05c 8f3e c6b6 a33d bc22 d53d
00000110: 3c3a 65be 4814 6b3c 187e 5d3d 3fae c23d
00000120: 8630 763e bf41 8f3e 9b17 fa3d c006 383e
00000130: d23d 3bbe 9c94 203e 2ce6 eabc 8b6e 803e
00000140: 3ef5 273e dc4a 393d 65c2 263e d008 393d
00000150: eeb5 563e 5f0c b0be ba23 93be b47e 79be
00000160: e5a0 10be e730 69bd 944b 5f3e 941d 033e
00000170: a5be e53c 90c6 e1bd f2e2 e03d bfeb 35bd
00000180: 10cd 013e 9c03 a9be b066 98be 0e75 2b3e
00000190: b9e8 d73d bb90 583e 6c01 bb3d ec3a f53d
000001a0: 62e9 a83d c992 3e3e 6b8c e1bd 8369 71be
000001b0: 7b81 8cbd e8ba 653d d5c4 fcbd c858 903e
000001c0: 1a80 573e beca 253e 192c 33bd 124c 2e3e
000001d0: e4c8 bf3e 3393 283d aaf7 1bbe e94a 3b3e
000001e0: b488 303e bc4a c83d ea87 fdbd 4f09 14bc
000001f0: aa25 1e3e 2c85 833d 920f 8a3e da7f d53d
00000200: 3934 90bd a620 883e 3f40 8ebe 3389 50be
00000210: 04e2 1dbd 388c 75be f745 64be 0b29 fa3d
00000220: 82fb ae3e 8470 743e 7b04 e03d ad9a 1b3e
00000230: ed23 50be 976e 48bd 44cb 51be 87f9 7fbe
00000240: fded 0a3e c337 863e 449f 853d 17ef 963e
00000250: 7f58 513e 6ef3 88bd 6a0e 533e 7603 a0bc
00000260: fc1a 66be 64db a4bd 48a6 77be add3 c4bd
00000270: ef8b 8b3e 4f5b 69be f17b 62be 4cb2 71bc
00000280: 04a0 7ebe 5cc3 82be fd4b 46bd ff6c 64bd
00000290: 3d79 18be 8f32 a13e c1f7 a03e f361 82be
000002a0: d7fa 0c3e 0ae4 bb3d 9643 4e3e 2fb8 fd3d
000002b0: cc15 9cbd 32be 233e 250f 25be 814b 883e
000002c0: d3b6 203e f255 773e 2fbc 1cbe 1af0 bd3c
000002d0: 819c 6b3e cb0d ad3d 3805 78be a783 67be
000002e0: 56bb 463e 0867 aabd a33e 463e 74ec 113e
000002f0: 76f2 b73e cf9b 22bd c5e8 3c3d 57dc 09be
00000300: 04cc f33d 4be1 333d d019 683e e1c1 8a3d
00000310: 8c37 63be 0514 813e d305 0ebe e157 1c3e
00000320: 646e 073d 07f3 a8be f6f6 493e 1e57 923e
00000330: 4890 463e 7237 dfbc 9737 1cbe 2b82 e43d
00000340: 1c06 8bbe 8164 0a3e c41f 3f3e 47bf c33d
00000350: b83f fe3d 1aeb 3a3e 9426 8bbd 0ba1 0ebe
00000360: b5e0 f4bd abe2 18be ac36 dc3c 6002 b1bb
00000370: f666 1c3e e4bc d3bd 988d dabb 5f22 473e
00000380: db05 11bc 418b 42bd 2e18 2abe daf5 a2bd
00000390: 7d2e 84bc 921c 8e3e 48cb 8c3e ae7a b1be
000003a0: 0b3f 223e faa1 d1bd f84c 8c3d 5c4c e43d
000003b0: c9a7 84be 43a5 97bd 3355 a8bd 2c47 433e
000003c0: cd27 873c ec37 6ebd fd15 2bbe cb62 37be
000003d0: c379 603e 8fe3 6d3e 00db fabd a561 0f3d
000003e0: 3c64 38be aecd 833d 544f 7cbd cd8b 693d
000003f0: 6a80 b3be 5884 b73e f33a 293e 0ae5 51be

arith.constant21 f4 [20, 13]
-0.2701957 0.06413451 0.1466162 0.055575587 0.14745133 -0.17951567 -0.07765448 0.24046391
0.24024452 -0.1406527 0.027921688 -0.09153688 0.046866424 0.15507253 -0.2442251 -0.11417859
0.055564977 -0.10500938 0.31269103 -0.08752518 -0.26596358 -0.12812473 0.028332127 -0.2963215
0.10564522 0.16613175 0.11478128 -0.19062945 -0.060343456 0.0877271 -0.18692602 -0.09215101
-0.11805129 0.27323535 0.14092174 0.14110513 0.20552371 0.19025661 -0.09367994 0.18725897
-0.09571741 -0.049412597 0.32604852 -0.20983325 0.17415173 -0.06642941 0.29316935 -0.2124851
-0.34326655 0.15518671 0.028250275 0.113636434 -0.18178491 0.09853364 0.0032741486 0.10585351
0.23994978 0.2997755 0.3574147 0.3193448 -0.070796356 0.32695812 -0.29586282 0.1817307
-0.05800161 0.22033916 -0.15712611 0.19298883 -0.24351834 -0.13465837 -0.2523939 0.15348467
0.1683249 0.0908745 -0.08446418 -0.17662007 0.1866271 0.014178659 0.010089157 -0.03021856
0.22485073 0.06453134 -0.07559155 -0.062761925 0.38233596 -0.1749322 -0.23031239 -0.29559922
0.15119663 -0.249938 0.24569333 -0.1345146 -0.091918305 0.35478917 0.07507071 0.030210601
-0.26294675 0.097399876 0.28529546 0.18689075 -0.25868908 -0.26396137 -0.052564092 0.10795929
0.26484606 0.1927942 0.016159283 -0.09403352 -0.010338499 0.044381447 0.06601796 0.20464443
0.32951713 -0.02088602 0.10527245 0.15974352 -0.113938004 -0.06332866 0.24194229 0.047963977
-0.17311496 -0.07684919 0.21157736 -0.040825658 -0.15394376 0.129899 -0.29173505 -0.11562685
-0.0884149 -0.118540585 0.22080438 -0.2400606 0.24789543 -0.02228611 -0.1791163 0.124557026
-0.09277993 -0.051746972 -0.028919652 -0.26489902 0.053803813 0.17553906 0.10950656 0.17784552
0.22067417 -0.046425384 -0.2606551 -0.14266536 0.02288908 0.31006885 0.013493899 0.27888563
0.072283775 0.17008264 -0.2819833 0.10946696 -0.26687846 -0.18130882 -0.1256745 0.23089342
-0.24080823 -0.31889758 0.28981212 0.21974067 0.22795628 0.11333428 -0.2255796 -0.22091942
-0.27794474 0.04006093 -0.23881038 0.16742568 -0.07712914 -0.14592817 -0.032198288 0.07080405
-0.15060191 -0.32365468 0.18773499 -0.24530646 0.29755977 -0.1633743 -0.25145182 0.1485008
0.029256018 -0.0014851363 0.27777055 -0.047187507 -0.09913585 -0.16361564 -0.09373942 0.024635011
0.087722704 0.13765572 0.3126536 -0.31795183 -0.18576238 0.04101776 -0.20462768 0.29101348
0.2529208 -0.13081358 0.0044872565 -0.09972174 0.097254515 -0.022239193 0.23414394 0.008437694
0.18621585 -0.09856458 -0.31679124 -0.20219362 -0.039965127 -0.25756854 -0.008266307 0.14297067
0.31249353 0.11814183 -0.12580878 -0.03733112 0.11948623 0.10994286 -0.10683764 -0.06669533
0.24548675 0.122259945 -0.012521615 0.31069154 -0.19861418 -0.071829565 -0.045191273 -0.31782815
0.2797448 -0.07893597 0.165975 -0.1134293 -0.34519628 0.16152556 0.070948124 -0.2062268
0.05958615 -0.20262219 -0.22211759 -0.25517035 -0.14769617 -0.0112193795 0.13284424 -0.050709326
0.06622391 -0.0048225354 0.05600698 0.2206387 -0.15236707 -0.20662817 0.0019123658 -0.038027298
00000000: 1757 8abe f458 833d 8f22 163e 3aa3 633d
00000010: 7bfd 163e f5d2 37be 5009 9fbd 2c3c 763e
00000020: a902 763e 4307 10be 06bc e43c b077 bbbd
00000030: 02f7 3f3d 55cb 1e3e 2516 7abe 77d6 e9bd
00000040: 1a98 633d 280f d7bd 0a19 a03e 6740 b3bd
00000050: 612c 88be 2133 03be c718 e83c 74b7 97be
00000060: 855c d83d 711e 2a3e 7312 eb3d 5e34 43be
00000070: b32a 77bd 44aa b33d 8969 3fbe abb9 bcbd
00000080: e0c4 f1bd 81e5 8b3e ca4d 103e dd7d 103e
00000090: cf74 523e a1d2 423e 45db bfbd d1c0 3f3e
000000a0: 7d07 c4bd dd64 4abd d5ef a63e 87de 56be
000000b0: d554 323e 240c 88bd 4b1a 963e b295 59be
000000c0: a2c0 afbe 44e9 1e3e 1f6d e73c 38ba e83d
000000d0: d325 3abe 01cc c93d 1993 563b bac9 d83d
000000e0: 65b5 753e 2d7c 993e 0fff b63e 2981 a33e
000000f0: aefd 90bd 0e67 a73e 557b 97be 9d17 3a3e
00000100: 1993 6dbd 97a0 613e abe5 20be dd9e 453e
00000110: df5c 79be e2e3 09be c639 81be 162b 1d3e
00000120: 5d5d 2c3e 691c ba3d 8efb acbd e4db 34be
00000130: 2d1b 3f3e 9b4d 683c fe4c 253c ea8c f7bc
00000140: 453f 663e 0229 843d becf 9abd 5389 80bd
00000150: 8ac1 c33e 6d21 33be 03d7 6bbe c858 97be
00000160: 4ad3 1a3e bfef 7fbe 0897 7b3e 32be 09be
00000170: aa3f bcbd eda6 b53e acbe 993d 397c f73c
00000180: f5a0 86be 9679 c73d 3f12 923e 4a60 3f3e
00000190: e572 84be f225 87be 724d 57bd c319 dd3d
000001a0: e799 873e d86b 453e 7960 843c a594 c0bd
000001b0: cf62 29bc 52c9 353d 6d34 873d 4f8e 513e
000001c0: 78b6 a83e 2919 abbc 1599 d73d ce93 233e
000001d0: 5458 e9bd 75b2 81bd b8bf 773e e075 443d
000001e0: 0c45 31be 1c63 9dbd bca7 583e ce38 27bd
000001f0: 6fa3 1dbe 3e04 053e 4c5e 95be c5cd ecbd
00000200: df12 b5bd 68c5 f2bd 8b1a 623e 72d2 75be
00000210: 4dd8 7d3e 5c91 b6bc 436a 37be c117 ff3d
00000220: 6703 bebd a2f4 53bd e8e8 ecbc d8a0 87be
00000230: 6361 5c3d 83c0 333e fa44 e03d 231d 363e
00000240: 69f8 613e 8b28 3ebd 9674 85be de16 12be
00000250: e181 bb3c 58c1 9e3e 8415 5d3c 19ca 8e3e
00000260: 8409 943d 252a 2e3e 1d60 90be 3730 e03d
00000270: 4ba4 88be 05a9 39be d1b0 00be 536f 6c3e
00000280: 6f96 76be 8b46 a3be 4162 943e b303 613e
00000290: 5f6d 693e ce1b e83d 57fe 66be b338 62be
000002a0: c64e 8ebe ee16 243d b58a 74be a371 2b3e
000002b0: e2f5 9dbd 326e 15be 5ae2 03bd b701 913d
000002c0: 6337 1abe 11b6 a5be 9a3d 403e 9e31 7bbe
000002d0: c159 983e 984b 27be 4bbe 80be 9810 183e
000002e0: 51aa ef3c e8a8 c2ba f137 8e3e b047 41bd
000002f0: bd07 cbbd dc8a 27be 74fa bfbd 5dcf c93c
00000300: f6a7 b33d 9ff5 0c3e 2214 a03e 95ca a2be
00000310: 7e38 3ebe 3d02 283d eb89 51be b8ff 943e
00000320: d67e 813e fff3 05be d609 933b e93a ccbd
00000330: 602d c73d f82e b6bc 6ec3 6f3e 413e 0a3c
00000340: 5eaf 3e3e 3adc c9bd 7632 a2be d80b 4fbe
00000350: 79b2 23bd 06e0 83be 686f 07bc e766 123e
00000360: 27ff 9f3e 58f4 f13d 04d4 00be 84e8 18bd
00000370: 32b5 f43d b929 e13d b1cd dabd 9097 88bd
00000380: e160 7b3e 6c63 fa3d 7627 4dbc f612 9f3e
00000390: 8461 4bbe 611b 93bd 7c1a 39bd 5fba a2be
000003a0: b63a 8f3e 2fa9 a1bd 5af5 293e 9f4d e8bd
000003b0: 91bd b0be f566 253e 404d 913d 1e2d 53be
000003c0: 9b10 743d 317c 4fbe cb72 63be b0a5 82be
000003d0: aa3d 17be 7dd1 37bc 5208 083e 95b4 4fbd
000003e0: 67a0 873d 5c06 9ebb 9367 653d 1def 613e
000003f0: 1d06 1cbe 5696 53be 59a8 fa3a 83c2 1bbd
