src/assets/models/gru.tflite (tflite, 19788 bytes, 13 tensors)

dense_1/MatMul f4 [1, 20]
0	0x3e38487d	0.17996402
1	0xbe208dac	-0.15679044
2	0x3e511d11	0.20421244
3	0x3e808ffd	0.25109854
4	0x3e9f9b04	0.31172955
5	0xbe024ac4	-0.12723833
6	0x3ee93d80	0.45554733
7	0xbea65377	-0.32485554
8	0xbda1be6c	-0.07897648
9	0x3f00253d	0.5005682
10	0xbe4c9239	-0.19977655
11	0x3deb8284	0.11499503
12	0x3eb38d3a	0.35068685
13	0xbe49f9e9	-0.1972424
14	0x3e958416	0.29202336
15	0x3ef4df11	0.47826436
16	0x3e978138	0.29590774
17	0xbe593014	-0.21209747
18	0xbebbe647	-0.36699125
19	0x3cbe22a7	0.023209883

net/strided_slice_6 f4 [20]
0	0x3c210718	0.009828351
1	0xbc0ca785	-0.008584862
2	0xbbe0bd55	-0.0068585076
3	0x3bf37cc8	0.0074306466
4	0x3beb6078	0.007183131
5	0x3c27e488	0.010247357
6	0xbc13e303	-0.009026292
7	0x37bc6b00	2.2461172e-05
8	0x3b6040a7	0.0034218223
9	0xbc09ab3c	-0.008402642
10	0x3be3bea1	0.006950215
11	0x3c0baa2a	0.008524457
12	0xbbfe394d	-0.0077582956
13	0x3c29ea49	0.010370799
14	0x3b8a5eda	0.004222733
15	0xbb1358fd	-0.002248346
16	0xbbbb8b40	-0.005723387
17	0x3bccf6a8	0.0062549897
18	0x3bde6841	0.0067873304
19	0x3b2073ba	0.002448304

net/strided_slice_7 f4 [20]
0	0x3c12cefc	0.008960482
1	0xba28fd30	-0.0006446419
2	0x3c1aaaa1	0.009440095
3	0x3c15cee0	0.009143561
4	0xbbff14df	-0.0077844705
5	0xbc049230	-0.008091494
6	0xbc048f5a	-0.008090818
7	0xbba0c436	-0.0049062027
8	0x3c08da8d	0.008352888
9	0xbbd8eca5	-0.006620007
10	0xbc0dedf2	-0.008662688
11	0xbc12547a	-0.008931274
12	0x3ba40670	0.00500565
13	0xbb728764	-0.0037006969
14	0x3c0ddb4e	0.008658243
15	0x3c0b1f95	0.008491416
16	0xbc1ac616	-0.009446641
17	0x3c0a1aa8	0.008429207
18	0xbc0c9576	-0.008580556
19	0x3bb54d75	0.0055329152

net/strided_slice_8 f4 [20]
0	0xbc184b0d	-0.009295237
1	0x3c1740d4	0.009231765
2	0xbc10972d	-0.008825106
3	0xbc1c6413	-0.009545344
4	0xbc0f150e	-0.008733047
5	0x3c08d626	0.008351838
6	0xbc13114b	-0.008976291
7	0x3c0fbb7f	0.00877273
8	0x3c2e972e	0.010656161
9	0xbc1048d1	-0.008806423
10	0x3c0e4f12	0.008685844
11	0xbc09c2f0	-0.008408293
12	0xbc18d7ea	-0.009328822
13	0x3c0de921	0.008661539
14	0xbc0c1680	-0.008550286
15	0xbc129325	-0.008946215
16	0xbc10d06e	-0.008838756
17	0x3c0e9d88	0.008704551
18	0x3c0f1412	0.0087328125
19	0xbbbc36e9	-0.0057438505

net/strided_slice_81 f4 [20]
0	0xbc184b0d	-0.009295237
1	0x3c1740d4	0.009231765
2	0xbc10972d	-0.008825106
3	0xbc1c6413	-0.009545344
4	0xbc0f150e	-0.008733047
5	0x3c08d626	0.008351838
6	0xbc13114b	-0.008976291
7	0x3c0fbb7f	0.00877273
8	0x3c2e972e	0.010656161
9	0xbc1048d1	-0.008806423
10	0x3c0e4f12	0.008685844
11	0xbc09c2f0	-0.008408293
12	0xbc18d7ea	-0.009328822
13	0x3c0de921	0.008661539
14	0xbc0c1680	-0.008550286
15	0xbc129325	-0.008946215
16	0xbc10d06e	-0.008838756
17	0x3c0e9d88	0.008704551
18	0x3c0f1412	0.0087328125
19	0xbbbc36e9	-0.0057438505

net/strided_slice_71 f4 [20]
0	0x3c12cefc	0.008960482
1	0xba28fd30	-0.0006446419
2	0x3c1aaaa1	0.009440095
3	0x3c15cee0	0.009143561
4	0xbbff14df	-0.0077844705
5	0xbc049230	-0.008091494
6	0xbc048f5a	-0.008090818
7	0xbba0c436	-0.0049062027
8	0x3c08da8d	0.008352888
9	0xbbd8eca5	-0.006620007
10	0xbc0dedf2	-0.008662688
11	0xbc12547a	-0.008931274
12	0x3ba40670	0.00500565
13	0xbb728764	-0.0037006969
14	0x3c0ddb4e	0.008658243
15	0x3c0b1f95	0.008491416
16	0xbc1ac616	-0.009446641
17	0x3c0a1aa8	0.008429207
18	0xbc0c9576	-0.008580556
19	0x3bb54d75	0.0055329152

net/strided_slice_61 f4 [20]
0	0x3c210718	0.009828351
1	0xbc0ca785	-0.008584862
2	0xbbe0bd55	-0.0068585076
3	0x3bf37cc8	0.0074306466
4	0x3beb6078	0.007183131
5	0x3c27e488	0.010247357
6	0xbc13e303	-0.009026292
7	0x37bc6b00	2.2461172e-05
8	0x3b6040a7	0.0034218223
9	0xbc09ab3c	-0.008402642
10	0x3be3bea1	0.006950215
11	0x3c0baa2a	0.008524457
12	0xbbfe394d	-0.0077582956
13	0x3c29ea49	0.010370799
14	0x3b8a5eda	0.004222733
15	0xbb1358fd	-0.002248346
16	0xbbbb8b40	-0.005723387
17	0x3bccf6a8	0.0062549897
18	0x3bde6841	0.0067873304
19	0x3b2073ba	0.002448304

net/while/MatMul f4 [20, 13]
0	0xbdb66a67	-0.089070134
1	0xbe2bcacb	-0.16776578
2	0xbe4e16ae	-0.20125839
3	0xbd9ed9dd	-0.07756398
4	0x3e64c725	0.22341593
5	0x3de76032	0.11297645
6	0xbdd5c30e	-0.10437594
7	0x3e4f8ee3	0.2026935
8	0x3e8ade79	0.27122858
9	0x3e4e891b	0.20169489
10	0x3d8889cc	0.06666908
11	0xbe835620	-0.25651646
12	0xbdc46dfe	-0.09591292
13	0x3e6ad952	0.22934464
14	0x3e6f1233	0.23346786
15	0x3d095ef2	0.033537813
16	0x3e55a140	0.20862293
17	0xbdb959d1	-0.09050334
18	0x3d892cd5	0.06698004
19	0x3dca6662	0.09882809
20	0x3dc92f13	0.09823432
21	0x3df362a0	0.118840456
22	0xbdfc2786	-0.12312226
23	0x3d50d01a	0.05097971
24	0xbe4e338e	-0.20136854
25	0xbe4b7d4c	-0.19872016
26	0xbe0a6f90	-0.1351912
27	0xbdc16087	-0.09442239
28	0xbe6acf74	-0.229307
29	0xbdff15c7	-0.124553256
30	0x3e71b04c	0.23602408
31	0xbe86b765	-0.26311794
32	0xbcfda62e	-0.03096303
33	0xbdda4154	-0.106569916
34	0xbe2abdbe	-0.16673943
35	0x3e6eac5e	0.2330794
36	0xbd946e20	-0.07247567
37	0xbdbdadbd	-0.092616536
38	0xbdbea209	-0.093082495
39	0xbe733ac2	-0.23752883
40	0x3dfa6259	0.122257896
41	0x3c9f48f2	0.019443963
42	0xbddf1c51	-0.10894073
43	0xbc8799a2	-0.01655275
44	0xbe15767f	-0.14595984
45	0x3e3446e3	0.17605166
46	0x3e491f98	0.19640958
47	0x3d7bf484	0.061512485
48	0xbe56e305	-0.20985039
49	0xbc1f6c4b	-0.009730409
50	0xbcd0fd34	-0.025511362
51	0x3cd9a829	0.026569443
52	0x3dfa6e10	0.12228024
53	0x3cda444c	0.026643895
54	0x3e3efa24	0.18650109
55	0xbe59359d	-0.21211858
56	0xbe688fce	-0.22711107
57	0xbde44e1b	-0.1114771
58	0x3e1b6034	0.15173417
59	0x3de02473	0.10944452
60	0xbd762750	-0.060096085
61	0xbe4bb046	-0.19891462
62	0x3e2881d5	0.16455777
63	0xbd453674	-0.048147634
64	0x3df17008	0.117889464
65	0x3e2b9427	0.16755734
66	0xbe2162eb	-0.1576039
67	0xbe6244a0	-0.22096491
68	0xbe8527f0	-0.26007032
69	0xbe7e04bd	-0.24806495
70	0x3e786427	0.24256955
71	0xbdd8fe8a	-0.105954245
72	0x3dee46e0	0.11634612
73	0x3e42b734	0.19015199
74	0xbde16239	-0.110050626
75	0xbe8a8a80	-0.27058792
76	0xbc10891a	-0.00882175
77	0xbe619551	-0.22029616
78	0xbd29993c	-0.0414059
79	0x3e86f9c2	0.26362425
80	0xbd4f4b1d	-0.050608743
81	0x3e41c692	0.18923405
82	0x3e0a2823	0.13491873
83	0x3e31441d	0.1731114
84	0x3d25c5f1	0.040471975
85	0x3ccaf728	0.024776056
86	0x3e52c05a	0.20581189
87	0xbe702f22	-0.2345548
88	0xbdee7d99	-0.116450496
89	0xbe8e81ad	-0.2783331
90	0x3e259d02	0.16173175
91	0xbd1fec58	-0.039043754
92	0x3e4e2506	0.20131311
93	0x3e604cb9	0.21904267
94	0x3e46f2c0	0.1942854
95	0x3e79473f	0.24343584
96	0x3d25152c	0.040303394
97	0x3e3c77ba	0.18405047
98	0xbe59c553	-0.2126668
99	0x3e2c0433	0.16798477
100	0x3e4b8ded	0.19878359
101	0x3e865643	0.26237687
102	0x3e8c953b	0.27457604
103	0x3de53f1d	0.111936785
104	0x3e59c17d	0.21265216
105	0xbe424a50	-0.1897366
106	0xbd9da6be	-0.07697819
107	0xbdab72c1	-0.08371497
108	0xbe6c9b86	-0.23106202
109	0xbd13c483	-0.03607608
110	0x3db78cbc	0.0896239
111	0x3bf22d6c	0.0073906686
112	0xbe7d8fb2	-0.24761847
113	0x3e2be0cc	0.16784972
114	0x3e7c82e7	0.2465931
115	0x3e7dd1f7	0.24787126
116	0x3cdefefb	0.027221194
117	0xbde0914d	-0.10965214
118	0x3e491460	0.19636679
119	0x3e0dc532	0.13844755
120	0x3e8acf04	0.27111065
121	0x3d776cc1	0.06040645
122	0xbe6ec57b	-0.2331752
123	0x3e600736	0.21877751
124	0xbd2dbb8b	-0.042415183
125	0xbe133531	-0.1437576
126	0xbe6fc1c8	-0.23413765
127	0x3e2afa62	0.16697076
128	0xbe4d2d5b	-0.20036833
129	0x3d3d3502	0.04619313
130	0x3d8a28f6	0.06746094
131	0xbe3121ff	-0.17298125
132	0xbe562ff7	-0.20916735
133	0xbe5714f3	-0.21004085
134	0xbe885e75	-0.26634565
135	0x3e4ac634	0.19802171
136	0xbe61dc52	-0.22056702
137	0xbdb87e49	-0.09008462
138	0xbe084ba6	-0.13310108
139	0xbc0bd0ac	-0.008533638
140	0xbd607c3e	-0.054805987
141	0x3d0ac7cb	0.033881944
142	0x3d117ec7	0.035521295
143	0xbe955954	-0.29169714
144	0x3cf0a81a	0.029377032
145	0x3cf627b5	0.03004823
146	0xbe5e18eb	-0.21689193
147	0xbe8c19b0	-0.27363348
148	0x3d6ddbbb	0.05807088
149	0xbd6596e2	-0.056052096
150	0x3e572f54	0.21014148
151	0x3dc5075f	0.096205465
152	0xbe0c802d	-0.1372077
153	0xbde5e81b	-0.11225911
154	0xbbb3d8e5	-0.0054885023
155	0xbe8b1b47	-0.27169248
156	0x3bd33d72	0.006446534
157	0x3e600f57	0.21880852
158	0x3e2e01e2	0.16992906
159	0xbd950aef	-0.07277476
160	0x3e5d5195	0.21613152
161	0xbc92c644	-0.017916806
162	0xbdcfb3a3	-0.10141685
163	0xbe816b87	-0.2527735
164	0xbe642443	-0.22279458
165	0x3e06bfb3	0.13159065
166	0x3e4bb92a	0.19894853
167	0x3e7ee7e9	0.24893154
168	0x3d961904	0.0732899
169	0x3e372b1f	0.17887543
170	0xbe19ff5e	-0.15038821
171	0x3e2dfaf6	0.16990265
172	0x3dee5b78	0.1163854
173	0x3e452f2a	0.19256273
174	0xbd9b8799	-0.075942226
175	0x3d589fba	0.052886702
176	0x3e879f19	0.2648857
177	0xbe8888f6	-0.26666993
178	0xbe3710db	-0.17877524
179	0xbe8d052d	-0.2754301
180	0xbe333ff4	-0.17504865
181	0x3dd3c110	0.10339558
182	0x3d94c913	0.07264914
183	0xbcb0f50c	-0.021601222
184	0xbdf9295c	-0.12166092
185	0xbe6303bc	-0.22169393
186	0xbe462960	-0.19351721
187	0x3e8935ad	0.26798764
188	0x3dd03297	0.10165899
189	0xbe021759	-0.12704219
190	0xbd73eeca	-0.0595539
191	0xbe2df02f	-0.16986154
192	0xbe936eaa	-0.28795367
193	0xbd97eafb	-0.07417866
194	0xbe6fe8f3	-0.23428707
195	0xbcb28acc	-0.0217947
196	0x3cb27b1d	0.02178722
197	0x3e573b0f	0.21018623
198	0xbdcfd83c	-0.10148665
199	0x3df5a005	0.11993412
200	0xbe1f206e	-0.15539715
201	0x3d46b02b	0.04850785
202	0x3e4b6496	0.19862589
203	0xbe637094	-0.22210914
204	0xbd1323b0	-0.035922706
205	0xbe149038	-0.1450814
206	0x3e7515b8	0.23934066
207	0xbe8683f0	-0.26272535
208	0xbe1fe75b	-0.15615599
209	0x3dcabeb0	0.09899652
210	0xbe15fdbe	-0.14647576
211	0x3dd9f247	0.10641914
212	0x3e09ee62	0.13469842
213	0x3e8aafdb	0.27087292
214	0x3e1373d3	0.14399652
215	0xbd9fe730	-0.078077674
216	0x3d65c4b5	0.056095798
217	0x3da6439c	0.08118364
218	0x3b490108	0.003067078
219	0xbe7d9df2	-0.24767283
220	0x3dea73fe	0.11447905
221	0xbe12e660	-0.14345694
222	0x3d73e30e	0.059542708
223	0xbe3b101c	-0.18267864
224	0xbdd5548f	-0.10416519
225	0xbe44bdd5	-0.1921304
226	0xbe678df8	-0.2261275
227	0xbe0f8092	-0.1401389
228	0x3e68920a	0.2271196
229	0xbc8879ed	-0.016659701
230	0xbdef3a8b	-0.11681088
231	0xbe59693c	-0.2123155
232	0x3e78f5b6	0.24312481
233	0x3e1de27c	0.15418428
234	0xbe44fa40	-0.19236088
235	0xbe004209	-0.1252519
236	0xbe20c11c	-0.15698665
237	0xbd51818b	-0.051148932
238	0x3bdd0449	0.0067448956
239	0x3e8cff38	0.27538466
240	0xbe866854	-0.2625147
241	0xbe167b46	-0.14695463
242	0x3d540dfc	0.05177115
243	0xbde85aa8	-0.11345416
244	0x3e86390f	0.26215407
245	0xbd98a647	-0.0745359
246	0x3d87c527	0.06629401
247	0xbe43b727	-0.19112836
248	0x3d25776c	0.040397093
249	0xbdd38d36	-0.10329668
250	0x3e1a4a91	0.15067507
251	0x3e172c3c	0.14762968
252	0xbd706b58	-0.05869612
253	0xbe4052ec	-0.18781632
254	0xbe84f588	-0.25968575
255	0x3cf7c9d0	0.030247599

net/while/MatMul_1 f4 [20, 13]
0	0xbcb2c033	-0.021820163
1	0x3e670d39	0.22563638
2	0xbdcb9e8f	-0.09942352
3	0xbcfb3be7	-0.030668212
4	0xbde232f8	-0.11044878
5	0x3de61e53	0.11236253
6	0xbe144be0	-0.14482069
7	0xbd892c3a	-0.06697889
8	0x3e43db37	0.19126593
9	0x3e07c600	0.13259125
10	0xbe46b03e	-0.19403169
11	0xbe11ba15	-0.14231141
12	0x3e4c6abc	0.19962591
13	0xbd4f3747	-0.050589826
14	0xbcd9e969	-0.026600556
15	0xbdf3ecfc	-0.119104356
16	0xbd880d6f	-0.06643187
17	0xbdc7711a	-0.09738369
18	0x3e4a17f5	0.19735701
19	0x3e2051e8	0.15656245
20	0xbe1da967	-0.15396653
21	0x3db4ab0b	0.08821686
22	0x3e89effe	0.26940912
23	0x3e76bde4	0.24095875
24	0xbe135301	-0.14387132
25	0xbdc9b0ab	-0.0984815
26	0xbdee22da	-0.11627741
27	0x3e099ba1	0.13438274
28	0xbe472eeb	-0.19451492
29	0x3e7e048f	0.24806426
30	0x3e2ca4d9	0.1685976
31	0x3dae9c3c	0.08525893
32	0x3d4a954e	0.049458794
33	0xbe8db594	-0.27677596
34	0x3e31b4b0	0.17354083
35	0x3e11219d	0.14172979
36	0x3e55cc06	0.2087861
37	0x3deef0bf	0.116670124
38	0xbe1b597d	-0.15170856
39	0x3caf4330	0.021394342
40	0xbe7b804e	-0.24560663
41	0xbe05fd29	-0.13084854
42	0xbe7fcb33	-0.24979858
43	0xbe7fe140	-0.2498827
44	0xbd041c70	-0.032253683
45	0x3e1ef699	0.15523757
46	0xbe8dd198	-0.2769897
47	0xbe80edb0	-0.2518134
48	0x3e06b2a6	0.13154086
49	0xbe625ba1	-0.22105266
50	0x3d9da113	0.07696738
51	0xbd539e66	-0.051664732
52	0xbe454d7d	-0.1926784
53	0xbd36e6ce	-0.044653706
54	0xbe5c259e	-0.21498725
55	0x3e5d65d5	0.21620877
56	0xbe7b700b	-0.2455446
57	0x3e4bfb4a	0.19920078
58	0xbe498532	-0.19679716
59	0x3da082a0	0.07837415
60	0x3e717f93	0.23583822
61	0x3dfddc6f	0.1239556
62	0xbe200608	-0.156273
63	0xbe05b709	-0.13058104
64	0x3d490a33	0.049081992
65	0xbcfee29f	-0.03111392
66	0x3d847827	0.0646823
67	0xbe7f53d6	-0.24934325
68	0xbe1e5de1	-0.154655
69	0x3d497c23	0.04919065
70	0xbcb2d3c3	-0.021829491
71	0x3e944819	0.28961256
72	0xbe7461f9	-0.23865499
73	0xbde4229f	-0.11139416
74	0x3b294b3f	0.0025832204
75	0x3e5f002d	0.21777411
76	0x3d7e1834	0.0620348
77	0x3dca12ef	0.098668925
78	0x3d042462	0.03226126
79	0x3e34a79a	0.1764206
80	0x3e8d9944	0.27655995
81	0x3e1d6cf1	0.15373589
82	0x3e032b47	0.12809478
83	0x3db54657	0.08851307
84	0xbdb2d72c	-0.08732447
85	0x3e6165c4	0.22011477
86	0xbe3a820e	-0.18213674
87	0xbd94cda5	-0.07265786
88	0x3e42d088	0.19024861
89	0x3e335fc6	0.17517003
90	0x3da7cb24	0.08193043
91	0x3dfab79b	0.12242051
92	0x3e694378	0.22779644
93	0x3e7311fb	0.23737328
94	0xbda0b605	-0.078472175
95	0x3e5c22c1	0.21497633
96	0xbe0130ef	-0.12616323
97	0xbdad0595	-0.0844833
98	0x3d1250a7	0.035721447
99	0x3e65c164	0.22437054
100	0xbcc91e54	-0.024550594
101	0x3e4e8b46	0.20170316
102	0xbe8bac9b	-0.27280125
103	0x3d8da81a	0.069168285
104	0xbc418a32	-0.0118127335
105	0x3e0c7b5e	0.13718936
106	0xbd19d59a	-0.037557222
107	0xbd9d85f8	-0.07691568
108	0x3e89b380	0.2689476
109	0x3e6b791e	0.22995421
110	0x3d002d1a	0.031293012
111	0x3d7cfe43	0.06176592
112	0x3d420861	0.047371272
113	0xbe3362d0	-0.17518163
114	0x3d0e39c5	0.034723062
115	0xbe2e0997	-0.16995846
116	0x3cda1e38	0.026625738
117	0xbddea69c	-0.10871622
118	0xbddde48f	-0.1083461
119	0xbdc45cb9	-0.09587998
120	0x3c1e5d85	0.0096658515
121	0xbe3eadf7	-0.1862105
122	0xbe8a558f	-0.270184
123	0xbe356c8f	-0.17717193
124	0x3daceda8	0.08443767
125	0xbe68cb23	-0.2273374
126	0x3d43a421	0.047763947
127	0xbc2372b6	-0.00997608
128	0xbd8d40ea	-0.06897147
129	0x3c84ab45	0.016194949
130	0x3e83e441	0.2576008
131	0x3e4ac1c0	0.19800472
132	0xbdd775cb	-0.10520514
133	0xbe0e68a2	-0.13907102
134	0xbe83f07c	-0.25769413
135	0x3c9aab68	0.018880561
136	0xbe547020	-0.20745897
137	0xbe1e9de0	-0.15489912
138	0x3e839ae5	0.25704113
139	0x3e914b00	0.28377533
140	0xbd62bb49	-0.05535439
141	0x3e4d4b97	0.20048366
142	0x3e8f6c9b	0.28012547
143	0xbdc29b94	-0.095023304
144	0xbcaae9e2	-0.020863477
145	0x3e84c043	0.25927934
146	0xbe611fe9	-0.21984829
147	0x3e8fc9e4	0.28083718
148	0xbc8ffa13	-0.0175753
149	0xbdecf1a7	-0.11569529
150	0xbdc8a48b	-0.09797009
151	0x3e07bbbf	0.13255213
152	0x3df8a354	0.12140527
153	0xbe801bc5	-0.25021186
154	0x3dab5cdd	0.08367322
155	0x3e53dcc3	0.20689683
156	0xbe78b79f	-0.24288796
157	0xbe760310	-0.24024606
158	0x3e5a77a0	0.21334696
159	0x3d84fdf2	0.06493749
160	0x3e6e9cb5	0.23301966
161	0x3a9dbfdd	0.0012035329
162	0xbde02f8a	-0.10946567
163	0xbe1bf015	-0.15228303
164	0x3d8d416b	0.06897243
165	0x3e7d05f3	0.247093
166	0xbe286a8e	-0.16446897
167	0xbcb73f03	-0.022368914
168	0x3d8aa417	0.06769579
169	0x3ded67e6	0.11592083
170	0x3b4f2eac	0.0031613512
171	0x3e888dc0	0.26670647
172	0x3e8cf6ad	0.2753195
173	0x3dd71eef	0.10503947
174	0xbe6315c9	-0.22176279
175	0x3d150be2	0.036388285
176	0xbe83c1a4	-0.25733674
177	0x3da38ea4	0.07986191
178	0xbe83e6b9	-0.25761965
179	0xbdcc81b3	-0.09985676
180	0xbe7b5d16	-0.24547228
181	0x3d284625	0.04108252
182	0xbe2ec846	-0.17068586
183	0xbd0a20d6	-0.03372272
184	0x3e4a7780	0.19772148
185	0x3d5ea7e6	0.05435934
186	0xbda08023	-0.0783694
187	0xbd8d1fdb	-0.068908416
188	0xbd9c1213	-0.07620635
189	0x3d964640	0.07337618
190	0xbe7fe474	-0.24989492
191	0x3d740a2f	0.059580024
192	0x3e44556d	0.19173212
193	0x3e1e7846	0.15475568
194	0xbca30698	-0.019900605
195	0xbe878685	-0.26469818
196	0x3e922cc9	0.28549793
197	0xbd1f384e	-0.038872056
198	0x3e69ce2e	0.22832558
199	0x3d7c4fa6	0.061599396
200	0x3e06045c	0.130876
201	0xbdb8fe60	-0.09032893
202	0xbc48b62e	-0.012250466
203	0x3d289732	0.041159816
204	0x3d1703db	0.03686891
205	0x3d573926	0.052544735
206	0xbe2d50d0	-0.16925359
207	0x3e6ceb19	0.23136558
208	0x3e53ed79	0.20696057
209	0x3e2f1837	0.17099081
210	0xbd8e0a54	-0.06935564
211	0xbe8097ec	-0.25115907
212	0x3d2fb238	0.042894572
213	0xbe59561b	-0.21224253
214	0x3e12b438	0.1432656
215	0x3e92cde4	0.28672707
216	0xbe758a2e	-0.23978493
217	0xbe5165e2	-0.20449021
218	0x3d453f5e	0.048156135
219	0xbdc4b93b	-0.096056424
220	0x3d8dcf38	0.069242895
221	0x3e5ff9cd	0.21872635
222	0xbdbddff8	-0.09271234
223	0xbdd06f1b	-0.10177442
224	0x3e55431d	0.20826383
225	0xbdc95361	-0.098303564
226	0x3e7d6fe5	0.24749716
227	0x3ded3e77	0.1158418
228	0xbe8e8a34	-0.27839816
229	0xbe8a9913	-0.2706991
230	0x3d817b5b	0.06322356
231	0xbdbe2adc	-0.092855185
232	0xbe0ae796	-0.13564906
233	0x3e3aac63	0.18229823
234	0xbe7a856a	-0.24464956
235	0x3e1fa2f9	0.15589513
236	0xbe371e22	-0.17882589
237	0xbd5eaa87	-0.054361846
238	0x3e39affe	0.18133542
239	0x3e224cf7	0.15849672
240	0x3e678072	0.22607592
241	0x3c8fdbd6	0.01756088
242	0xbd0cc363	-0.034366023
243	0x3e8a05aa	0.26957446
244	0xbe6a5988	-0.22885716
245	0xbcc6604a	-0.024215836
246	0xbdc02485	-0.093819655
247	0xbb88fc29	-0.0041804505
248	0x3e140515	0.14455064
249	0xbdc2765a	-0.0949523
250	0xbe4fbe9e	-0.20287558
251	0xbe418d22	-0.18901494
252	0x3cabeff8	0.02098845
253	0x3e417ad6	0.18894514
254	0x3b96f8d2	0.0046072984
255	0xbe2de299	-0.16980971

net/while/MatMul_2 f4 [20, 13]
0	0xbe89dc3b	-0.26925835
1	0xbd64fef6	-0.055907212
2	0x3e0461f1	0.12927987
3	0x3bb9751c	0.0056597125
4	0x3e2ed007	0.17071544
5	0x3e566742	0.20937827
6	0xbd80cd69	-0.06289179
7	0x3e31a28e	0.17347166
8	0xbe3336e7	-0.17501412
9	0xbe08af9c	-0.1334824
10	0x3ddb1e22	0.10699107
11	0xbe4e2072	-0.20129564
12	0x3e01cc92	0.12675694
13	0x3e2c6c1f	0.1683812
14	0x3e5ebf0b	0.21752565
15	0xbe47d6b2	-0.19515494
16	0xbe42e5d6	-0.19032988
17	0x3e86e3dd	0.2634572
18	0xbd274b20	-0.04084313
19	0x3e105e80	0.14098549
20	0x3e881533	0.26578674
21	0x3ce4cbf4	0.027929284
22	0xbdf28686	-0.118420646
23	0xbe75a783	-0.23989682
24	0xbdfdf195	-0.12399594
25	0x3e5d9421	0.21638538
26	0x3e089b02	0.13340381
27	0xbdf28263	-0.118412755
28	0xbe0ca1bf	-0.13733576
29	0xbd91c9ae	-0.071185455
30	0xbe3f71d9	-0.18695773
31	0x3e507d8e	0.20360395
32	0xbe2111a9	-0.15729393
33	0x3e7a847d	0.24464603
34	0x3e528d60	0.20561743
35	0x3e8ab202	0.27088934
36	0x3d56844a	0.052372254
37	0xbe8bc245	-0.27296653
38	0xbe5fb042	-0.21844581
39	0xbe0400c9	-0.12890925
40	0x3e441220	0.19147539
41	0xbe062712	-0.13100842
42	0x3c94744e	0.018121865
43	0x3dbad2de	0.09122251
44	0x3e4d8362	0.2006965
45	0x3e2367c7	0.15957557
46	0xbe7b4e40	-0.24541569
47	0xbdcdf9b6	-0.10057394
48	0xbdb228fd	-0.08699224
49	0x3e70debd	0.23522468
50	0x3bf6782b	0.0075216494
51	0x3e20b0a3	0.15692382
52	0xbe5d4e1d	-0.21611829
53	0x3dcd5c38	0.10027355
54	0x3e07bad3	0.13254862
55	0x3e103a93	0.14084844
56	0x3dae8f7e	0.08523463
57	0x3e0cc579	0.13747205
58	0x3e56fc1e	0.20994613
59	0x3de13182	0.10995771
60	0xbe865800	-0.26239014
61	0xbdef3390	-0.11679757
62	0xbe708475	-0.23488028
63	0x3e5769ce	0.21036455
64	0x3e0e6667	0.13906251
65	0xbdb238fc	-0.08702275
66	0xbdaac3c9	-0.08338124
67	0xbcf48cb4	-0.029852249
68	0x3e804aab	0.25056967
69	0x3d9e8ce7	0.07741719
70	0xbe77592f	-0.24155115
71	0x3d431cd1	0.047634903
72	0xbe22fbd5	-0.15916379
73	0xbe7d1ed7	-0.24718796
74	0xbe1ff788	-0.1562177
75	0x3e3a6fd8	0.18206728
76	0xbd7626ed	-0.060095716
77	0x3e498402	0.19679263
78	0xbde80fa1	-0.11331106
79	0xbe0bc71b	-0.13650171
80	0xbd84bf71	-0.06481827
81	0xbe035628	-0.12825835
82	0x3d984866	0.07435684
83	0xbdfedc11	-0.12444318
84	0x3e6df1df	0.23236798
85	0x3e78c8c8	0.24295342
86	0x3e8e13b3	0.27749404
87	0xbd948c54	-0.07253328
88	0xbd84b5b8	-0.064799726
89	0x3dcd3b88	0.1002112
90	0xbe851ce8	-0.25998616
91	0xbd98140d	-0.074256994
92	0x3b76abed	0.0037639097
93	0x3dbc707e	0.09201144
94	0x3d58e008	0.052948028
95	0xbdccd03f	-0.10000657
96	0x3e862101	0.26197055
97	0xbc82dd43	-0.015974646
98	0x3e77955b	0.24178068
99	0xbe150cf7	-0.14555727
100	0x3e535649	0.20638384
101	0x3e6821d8	0.2266916
102	0xbe93022a	-0.2871259
103	0x3df96ea2	0.12179305
104	0xbdeb344a	-0.11484583
105	0x3e6fc774	0.23415929
106	0xbe89b6d5	-0.26897302
107	0x3d56d708	0.052451164
108	0xbe44d2ca	-0.19221035
109	0x3da23e3c	0.079220265
110	0x3e34b48e	0.17647001
111	0x3e8db52f	0.27677295
112	0xbd2da62e	-0.04239481
113	0xbe635fc0	-0.22204494
114	0xbbf6196b	-0.0075103543
115	0x3dadc7cc	0.08485374
116	0x3e728b04	0.23685843
117	0x3e36ec40	0.1786356
118	0xbcb3d51c	-0.021952204
119	0x3e046ad7	0.12931381
120	0xbe6d2e2c	-0.23162144
121	0xbe6aceb5	-0.22930415
122	0xbda2205e	-0.0791633
123	0xbe5caea2	-0.21550992
124	0x3de53e98	0.111935794
125	0xbd6aa013	-0.057281565
126	0xbe837daf	-0.25681826
127	0xbdbabd73	-0.09118166
128	0x3e90b00d	0.28259316
129	0xbd943f55	-0.07238642
130	0xbe45a475	-0.19301017
131	0xbe86f035	-0.26355138
132	0xbcf4ec8c	-0.02989795
133	0xbde98acc	-0.114034265
134	0xbe161f40	-0.14660358
135	0xbe173d14	-0.14769393
136	0xbe3332b8	-0.17499816
137	0x3df3fc15	0.11913315
138	0x3e23643a	0.15956202
139	0x3e4105cd	0.18849869
140	0x3e6440fa	0.22290412
141	0xbe93034b	-0.2871345
142	0xbe6873bf	-0.22700404
143	0xbdaef164	-0.08542135
144	0x3e86c0a4	0.26318848
145	0x3e8ea7fd	0.2786254
146	0xbe50873f	-0.20364092
147	0x3e609b19	0.21934165
148	0x3e55e62d	0.20888586
149	0xbdcb11c6	-0.099154994
150	0xbe4383eb	-0.19093291
151	0x3e47ba99	0.19504775
152	0xbe2f5b85	-0.17124756
153	0xbe1d2b84	-0.15348631
154	0xbe0aef69	-0.1356789
155	0xbe76c781	-0.24099542
156	0x3b55a0c0	0.0032597035
157	0xbe917795	-0.28411546
158	0xbe666c8b	-0.22502343
159	0xbd494a78	-0.049143285
160	0x3e10c4ac	0.14137524
161	0xbc5b52fc	-0.013386484
162	0xbe1ab89f	-0.1510949
163	0x3c1f6db8	0.009730749
164	0xbe3e7c22	-0.1860204
165	0xbe743264	-0.23847347
166	0xbc2a8f5e	-0.010410158
167	0x3e836e65	0.25670162
168	0x3e0463e3	0.12928729
169	0x3dcea0a2	0.10089232
170	0xbde0452b	-0.10950693
171	0xbdd51cfd	-0.1040592
172	0x3d09a0da	0.033600666
173	0xbd0f2a1a	-0.03495226
174	0x3e15a954	0.14615375
175	0xbd92232b	-0.07135614
176	0xbc91985a	-0.017772842
177	0x3dcfd822	0.10148646
178	0xbdbfd1bf	-0.09366178
179	0x3e7049be	0.2346563
180	0x3cf6d6c3	0.030131703
181	0x3e015b3f	0.12632464
182	0x3b2d5746	0.0026449724
183	0x3db99ab4	0.090627104
184	0xbe468ae7	-0.19388925
185	0x3e8b87c8	0.2725203
186	0xbe3fa5b4	-0.18715554
187	0xbe5490a8	-0.20758307
188	0xbe88ae73	-0.26695594
189	0x3e6fb6e8	0.23409617
190	0x3ced0c79	0.028936611
191	0xbd3a50ec	-0.04548733
192	0xbe3c58a3	-0.18393187
193	0x3bc67122	0.006055967
194	0xbd5ad2e6	-0.053423785
195	0x3e36b125	0.17841013
196	0x3dd2f2d3	0.10300221
197	0xbd332564	-0.04373683
198	0x3e8e013d	0.2773532
199	0xbd149f27	-0.036284592
200	0xbdfbd93e	-0.12297295
201	0x3e882ae6	0.2659523
202	0x3df6472d	0.120252945
203	0xbdd7f976	-0.10545628
204	0xbe42d744	-0.1902743
205	0x3e71a936	0.23599705
206	0xbe4b5980	-0.1985836
207	0x3ddbcf28	0.10732871
208	0x3e47d315	0.19514115
209	0x3e806be3	0.2508231
210	0x3e7f9b85	0.2496167
211	0x3c4bd4fa	0.012440914
212	0xbd64e9f2	-0.05588717
213	0x3df2515e	0.11831926
214	0xbe01efb9	-0.12689103
215	0x3db907c7	0.090346865
216	0xbe758404	-0.23976141
217	0x3d91bf5e	0.071165785
218	0xbe3e768e	-0.18599913
219	0x3e8007ed	0.25006047
220	0xbd4a8c2e	-0.049450092
221	0xbe975f8b	-0.2956508
222	0xbe813ead	-0.2524313
223	0xbb0a3b91	-0.0021092633
224	0x3d98e7dc	0.07466099
225	0xbe0664d7	-0.13124405
226	0xbe6a3a0c	-0.22873706
227	0xbe5f6735	-0.21816714
228	0xbd1b9ab8	-0.03798935
229	0x3e00c132	0.12573698
230	0xbe3c0d6f	-0.183645
231	0xbc7490b4	-0.014927078
232	0x3ca4870b	0.020083925
233	0xbc271280	-0.010197282
234	0xbd462261	-0.04837263
235	0xbe6486ce	-0.22317049
236	0xbbbe1b9a	-0.00580163
237	0x3e03eac8	0.1288253
238	0xbe35426c	-0.17701119
239	0x3d31e958	0.043435425
240	0xbde62a99	-0.112385936
241	0xbe070aef	-0.13187765
242	0xbe923610	-0.2855687
243	0x3db1510c	0.086580366
244	0xbe484120	-0.19556093
245	0x3d779378	0.06044337
246	0x3e2c7dad	0.16844817
247	0x3d8fbf25	0.0701888
248	0x3c3b2773	0.01142298
249	0xbc628b4b	-0.013827155
250	0x3e178524	0.14796883
251	0x3e2034bb	0.15645115
252	0xbd68b8b7	-0.056816783
253	0xbe15e4a9	-0.14638008
254	0x3df813bb	0.12113138
255	0xbe518470	-0.20460677

net/while/MatMul_3 f4 [20, 20]
0	0x3dd4c531	0.10389174
1	0x3e5c9279	0.2154025
2	0xbe35ea78	-0.17765224
3	0xbe028072	-0.1274431
4	0xbc8ef436	-0.017450433
5	0xbc944a36	-0.018101793
6	0xbdb15751	-0.086592324
7	0x3ddcb651	0.107769616
8	0xbe14f850	-0.14547849
9	0xbba19a06	-0.004931691
10	0x3cc7a067	0.024368478
11	0x3d6cbc3b	0.057796698
12	0xbd733c01	-0.059383396
13	0x3d35cbb4	0.04438372
14	0xbdc3b2cd	-0.09555588
15	0xbea1263c	-0.31474483
16	0x3d1ad428	0.037799984
17	0xbe6581c3	-0.22412781
18	0x3e38c769	0.18044819
19	0xbb6700c8	-0.0035248268
20	0x3d69d539	0.05708811
21	0x3cdc24e2	0.026873056
22	0xbe005ac2	-0.12534621
23	0xbe045f7e	-0.12927052
24	0x3cbc892a	0.023014624
25	0x3d241928	0.040063053
26	0xbd0bac53	-0.034099888
27	0xbde0866e	-0.109631404
28	0xbe1268d1	-0.14297797
29	0xbe90cc1f	-0.28280732
30	0xbe7afba8	-0.24510062
31	0xbd76680e	-0.060157828
32	0xbe6be28a	-0.23035637
33	0xbe9149ea	-0.28376704
34	0xbdc96d79	-0.098353334
35	0xbe6218fe	-0.22079846
36	0x3d9bc797	0.07606428
37	0x3e1090ca	0.14117733
38	0x3e11d1ad	0.14240141
39	0x3e59b15e	0.21259066
40	0x3cf27654	0.029597439
41	0x3e32e9bc	0.17471975
42	0x3dcd4ded	0.10024629
43	0xbe3c4012	-0.18383816
44	0xbd50a046	-0.0509341
45	0x3d2963c3	0.041354906
46	0xbdac2c5b	-0.08406898
47	0xbe25da30	-0.16196513
48	0x3e81cb43	0.2535039
49	0xbd4a22c5	-0.049349565
50	0xbd3d4e3d	-0.046217192
51	0x3e8d6e2c	0.27623117
52	0xbd5d558c	-0.054036662
53	0xbdb5ecf3	-0.08883085
54	0x3d66e112	0.056366988
55	0x3dd7dbc3	0.10539963
56	0xbe181969	-0.14853443
57	0xbdb53e1c	-0.08849737
58	0xbd193342	-0.0374024
59	0x3e461d3c	0.1934709
60	0xbd701fec	-0.058624193
61	0xbe294ece	-0.16533968
62	0x3e3002e1	0.17188598
63	0x3e197c6f	0.14988874
64	0x3de414b1	0.11136759
65	0xbd9db83d	-0.07701156
66	0xbd89b9de	-0.067249045
67	0xbd0190a2	-0.031632073
68	0xbdf10ab9	-0.11769623
69	0x3d4c32f1	0.04985327
70	0x3dd717d6	0.10502593
71	0x3bb137cc	0.005408263
72	0x3e4ddf5a	0.20104733
73	0xbd9e68e7	-0.07734852
74	0x3caf646d	0.021410191
75	0xbdcd2db2	-0.10018481
76	0xbdb52b27	-0.08846121
77	0xbe81ef60	-0.2537794
78	0x3d4ef549	0.05052689
79	0xbdcbbfbd	-0.099486805
80	0x3d4f9e19	0.050687883
81	0x3db0282d	0.08601413
82	0xbd3bdd7f	-0.045865532
83	0xbd1a67e3	-0.03769673
84	0xbe408779	-0.18801679
85	0xbe070560	-0.13185644
86	0xbd8c3e95	-0.06847874
87	0xbc381a57	-0.011236749
88	0x3e6e9207	0.23297893
89	0xbdab0260	-0.08350062
90	0x3dd47b8b	0.103751265
91	0xbe5f15b8	-0.21785629
92	0x3dfc7070	0.12326133
93	0x3e0e9eb0	0.13927722
94	0xbe8b63c1	-0.27224544
95	0x3cc1c89d	0.02365523
96	0x3e3c0259	0.1836027
97	0x3eb3b625	0.35099903
98	0xbe278451	-0.16359068
99	0xbcb6bd90	-0.022307187
100	0x3dec293f	0.115313046
101	0xbb5ca5c1	-0.0033668133
102	0x3d2bb43f	0.041919943
103	0xbda4967a	-0.080365136
104	0xbe212a2d	-0.15738745
105	0xbe222639	-0.15834893
106	0xbcd82172	-0.026383135
107	0xbdd891e2	-0.105747
108	0x3d8e931d	0.069616534
109	0x3d4bdd61	0.04977167
110	0xbe1e3994	-0.15451652
111	0x3e7d90ee	0.24762318
112	0x3e896799	0.2683685
113	0xbdd86034	-0.10565224
114	0x3dc6926a	0.09695895
115	0xbe7f58e5	-0.24936254
116	0x3d8d036e	0.0688542
117	0xbe2eb1a9	-0.1705996
118	0x3e1617f7	0.1465758
119	0xbea20a6c	-0.31648576
120	0xbdadb331	-0.08481444
121	0x3de67e43	0.11254551
122	0xbde88260	-0.11352992
123	0xbc018f1f	-0.007907658
124	0x3e53e636	0.20693287
125	0x3eac01b2	0.33595043
126	0x3d2ce36d	0.042209078
127	0x3d055dcc	0.032560155
128	0xbd7dffc0	-0.06201148
129	0x3e52d130	0.20587611
130	0xbdb86db9	-0.09005303
131	0x3d528196	0.051393114
132	0x3d7c70c2	0.06163097
133	0xbdc9c463	-0.09851911
134	0x3ca54ad9	0.020177292
135	0x3db74305	0.0894833
136	0x3e16a1ef	0.1471021
137	0xbd30a9ea	-0.043130793
138	0xbd3a8e58	-0.045545906
139	0x3d35746f	0.044300493
140	0x3e1bd14f	0.15216564
141	0xbd4cf374	-0.050036862
142	0xbe0f5447	-0.13996993
143	0x3c3790fd	0.0112040015
144	0xbb6137f8	-0.0034365635
145	0xbe1653a1	-0.1468034
146	0x3e4cf4b6	0.20015225
147	0x3b2d551b	0.0026448432
148	0x3e01ac5a	0.12663403
149	0x3dd48f8b	0.10378941
150	0x3cb63f84	0.022247083
151	0x3d34adda	0.04411111
152	0xbe194c4d	-0.14970513
153	0xbe0453ce	-0.12922594
154	0xbd422d9a	-0.04740677
155	0xbdd7870c	-0.10523805
156	0x3e55c21c	0.20874828
157	0x3e2a8583	0.16652493
158	0x3d3081ed	0.043092657
159	0xbdc0b106	-0.094087645
160	0x3d92bff9	0.07165522
161	0x3d14f672	0.03636784
162	0xbd511d7c	-0.05105351
163	0xbd06c90a	-0.03290657
164	0x3eaa31e0	0.33241177
165	0x3debd194	0.11514583
166	0x3e545212	0.20734432
167	0xbe2ecee6	-0.17071113
168	0x3d7c3b93	0.061580252
169	0xbdc41cd5	-0.09575812
170	0x3d407fa4	0.046996728
171	0x3d6a3aef	0.05718511
172	0xbdc8c45c	-0.098030776
173	0x3e004199	0.12525024
174	0x3ddad78c	0.106856436
175	0xbe4e81f2	-0.20166758
176	0x3d910640	0.0708127
177	0x3dfbe2f4	0.12299147
178	0xbbefad04	-0.0073143262
179	0xbeb99b70	-0.36251402
180	0x3c51559b	0.012776758
181	0xbc0960e8	-0.008384921
182	0xbe3c1657	-0.18367897
183	0xbe098256	-0.13428625
184	0xbe29c697	-0.16579662
185	0x3c3d5a96	0.011557242
186	0xbda16e1e	-0.07882331
187	0x3dcff46a	0.1015404
188	0xbd300932	-0.04297752
189	0xbc3a94ac	-0.011387985
190	0x3e07cb51	0.13261153
191	0x3e8cc0a4	0.27490723
192	0x3e1e3239	0.15448846
193	0xbe0e8e82	-0.1392155
194	0x3e21f5b0	0.15816379
195	0xbdb3e468	-0.087837994
196	0xbdd11d27	-0.102106385
197	0x3e4be4cd	0.199115
198	0xbce411fb	-0.027840605
199	0xbdfc0343	-0.123053096
200	0xbe8af390	-0.27138948
201	0xbd90b76d	-0.07066236
202	0xbcaa1ef9	-0.020766722
203	0x3e3f2c23	0.1866918
204	0xbdcd62d7	-0.10028618
205	0xbd9c0b82	-0.076193824
206	0x3cb9bd6a	0.022673327
207	0xbec7ef96	-0.39049977
208	0xbd9401ac	-0.072268814
209	0xbce4363c	-0.027857892
210	0xbcd41fb4	-0.025894023
211	0x3e1de12c	0.15417928
212	0x3c3b2c88	0.011424191
213	0x3e079b71	0.1324289
214	0xbcacc50d	-0.021090055
215	0xbe50c0d7	-0.20386063
216	0x3d6be4a0	0.05759108
217	0x3d6cdc3d	0.057827223
218	0xbdf6f6f2	-0.1205882
219	0xbc2d65d0	-0.010583356
220	0xbdbb8735	-0.09156648
221	0xbe7f45ce	-0.24928972
222	0x3dd2dd3d	0.10296104
223	0xbe144479	-0.14479245
224	0x3bcb6312	0.0062068785
225	0xbe7789f5	-0.2417372
226	0xbdcc476e	-0.09974562
227	0x3d5dda2d	0.054163147
228	0xbde2fe8a	-0.11083706
229	0x3e0dba09	0.13840498
230	0xbd204d40	-0.03913617
231	0xbd28323c	-0.041063532
232	0xbd157033	-0.036483955
233	0x39bf1217	0.00036443837
234	0xbd0107ee	-0.031501703
235	0x3e493e87	0.19652759
236	0x3c4a8f52	0.012363272
237	0xbd2e7e1c	-0.042600736
238	0x3c213bf0	0.00984095
239	0x3d718343	0.05896307
240	0x3c25775a	0.010099256
241	0xbdeb17bd	-0.11479137
242	0x3da678d3	0.08128514
243	0xbd81d326	-0.063391015
244	0xbaee3dba	-0.0018176355
245	0xbdba7956	-0.09105174
246	0xbddcb756	-0.10777156
247	0xbd227971	-0.039666597
248	0xbdf9036d	-0.121588565
249	0xbe4d797d	-0.20065875
250	0x3cd4089f	0.025883017
251	0xbbe336ce	-0.0069340235
252	0xbdcac62e	-0.09901081
253	0x3d8154dd	0.063150145
254	0xba24e264	-0.00062898383
255	0xbc8e263f	-0.017352222

net/while/MatMul_4 f4 [20, 20]
0	0xbdb883b0	-0.090094924
1	0x3daaa6c0	0.08332586
2	0xbda55b83	-0.08074095
3	0x3c0cf708	0.008603819
4	0xbe7c6d1b	-0.24650995
5	0x3df66f83	0.12032988
6	0xbddd7004	-0.10812381
7	0xbd3b8cae	-0.04578846
8	0x3e92dc42	0.28683668
9	0xbe28063f	-0.16408633
10	0xbe65c451	-0.2243817
11	0xbe079a57	-0.1324247
12	0x3db701ab	0.08935865
13	0x3e1d313f	0.15350817
14	0xbd3c5b5c	-0.045985565
15	0xbdac4b63	-0.084128164
16	0xbe166f00	-0.1469078
17	0xbca226f9	-0.019793974
18	0x3e1e8018	0.15478551
19	0x3b2584f6	0.0025256253
20	0xbdb4fe35	-0.08837549
21	0x3e83c6ea	0.25737697
22	0xbd7ecd84	-0.062207714
23	0x3ceb2cab	0.028707823
24	0x3dc64f46	0.09683089
25	0xbd750e8b	-0.059828322
26	0xbe8d6f93	-0.27624187
27	0xbe429a3e	-0.19004151
28	0xbdd9e057	-0.106384926
29	0x3e0e1928	0.13876784
30	0xbe0ab841	-0.1354685
31	0x3e7c1ba3	0.24619918
32	0x3c5fd353	0.013661223
33	0x3dfc5639	0.12321133
34	0x3d844d08	0.06460005
35	0x3e68103d	0.22662444
36	0x3db07bdc	0.08617374
37	0x3deefeab	0.11669668
38	0xbd6dbe39	-0.05804274
39	0xbe059284	-0.13044173
40	0x3e1c7a77	0.15281092
41	0xbe09bc90	-0.13450837
42	0xbd4fc13b	-0.05072139
43	0x3d8e3228	0.0694316
44	0x3ddf4ac9	0.10902936
45	0x3de6df30	0.112730384
46	0x3dca8e4e	0.09890424
47	0xbd613872	-0.05498547
48	0xbe327ac8	-0.1742965
49	0x3d60a74e	0.054847054
50	0xbd3e7b0b	-0.04650406
51	0xbe3a609b	-0.18200915
52	0xbe357254	-0.17719394
53	0x3d885e93	0.066586636
54	0x3d6724b4	0.056431487
55	0x3c85e4e5	0.016344497
56	0xbe0ddf91	-0.13854815
57	0xbbbd6d3c	-0.005780844
58	0xbe130b43	-0.14359765
59	0xbd5bb684	-0.053640857
60	0x3de8dba6	0.113700196
61	0x3d880970	0.06642425
62	0x3e8f78bd	0.28021803
63	0x3db2c814	0.08729568
64	0xbdbd26c6	-0.09235911
65	0x3cc1e111	0.02366689
66	0x3cce0df7	0.025153143
67	0xbdbc9769	-0.09208567
68	0xbd32646e	-0.04355281
69	0xbe683fb1	-0.22680546
70	0xbc8ceda8	-0.017203167
71	0x3d537f98	0.051635355
72	0x3e3bd6d4	0.18343669
73	0x3daf4c00	0.08559418
74	0xbdec8a96	-0.11549871
75	0xbd043433	-0.032276344
76	0x3e93e708	0.288872
77	0xbe216196	-0.15759882
78	0x3d3dd892	0.046349116
79	0xbc8db31f	-0.017297326
80	0xbccca1e2	-0.024979535
81	0x3e12eb8f	0.14347671
82	0xbce512c4	-0.02796305
83	0x3e710477	0.2353686
84	0x3db5c15b	0.0887477
85	0x3c9313b4	0.017953731
86	0x3dccb542	0.0999551
87	0x3dd8f9ca	0.105945185
88	0xbe18a204	-0.14905554
89	0xbdda1f77	-0.10650533
90	0x3dd4955c	0.103800505
91	0xbdc42a86	-0.09578423
92	0xbd9f04bc	-0.07764575
93	0x3d0de16a	0.0346388
94	0x3e12c1a8	0.14331686
95	0xbe19fc31	-0.1503761
96	0xbe193477	-0.1496142
97	0x3dd9a05d	0.1062629
98	0xbe92d458	-0.2867763
99	0x3d9bf3cb	0.07614859
100	0x3e52df36	0.2059296
101	0xbd92114b	-0.071322046
102	0xbd4589dd	-0.04822718
103	0x3e2df6fd	0.1698875
104	0xbda9adb3	-0.082850836
105	0x3e2ebd1b	0.17064326
106	0xbe5c4ff1	-0.2151487
107	0xbe1b9e0a	-0.15197006
108	0x3d4433b0	0.047900856
109	0xbdac19af	-0.08403336
110	0x3e1902e6	0.14942512
111	0x3c685c47	0.014182157
112	0xbda7cb68	-0.081930935
113	0x3d993446	0.074806735
114	0x3da53656	0.080670044
115	0x3e06729a	0.13129655
116	0x3e04ba74	0.12961751
117	0xbd2043bd	-0.0391271
118	0xbd8d7db4	-0.069087416
119	0x3d1d4e80	0.03840494
120	0x3c862d5b	0.016379049
121	0xbd2ca858	-0.042152733
122	0x3d81aefc	0.06332204
123	0x3b34b118	0.0027571376
124	0x3e43809c	0.1909203
125	0xbe03b43f	-0.12861727
126	0x3d44cc60	0.04804647
127	0xbce4dabb	-0.02793633
128	0x3dc960a5	0.098328866
129	0xbc433b16	-0.011915943
130	0x3da0cdc7	0.07851749
131	0xbdc19e6b	-0.09454044
132	0x3e15db0f	0.14634345
133	0xbd99895a	-0.07496901
134	0xbccc636d	-0.024949754
135	0xbe34c930	-0.17654872
136	0xbdc14927	-0.09437781
137	0x3d831585	0.06400589
138	0x3cfbffca	0.030761618
139	0xbdf863f0	-0.121284366
140	0xbd6f539c	-0.058429345
141	0x3e1a7adc	0.1508593
142	0x3d7dee3c	0.061994776
143	0xbe847e9a	-0.2587784
144	0xbd1231fe	-0.035692208
145	0xbc345a8d	-0.011007917
146	0x3cb4de38	0.022078618
147	0xbcff080b	-0.031131765
148	0xbd642093	-0.055695128
149	0xbccf21b1	-0.02528462
150	0x3e78f877	0.24313532
151	0xbd9469dd	-0.07246754
152	0xbdfdaf08	-0.123869
153	0x3d3cdbf6	0.04610821
154	0xbd3e6177	-0.04647967
155	0x3c9a39a6	0.018826317
156	0x3e57cf86	0.21075258
157	0xbe22be1d	-0.15892835
158	0xbe30ea1a	-0.17276803
159	0xbdac5912	-0.08415426
160	0xbe2a984d	-0.1665966
161	0x3965d5b0	0.00021918747
162	0x3dfd7737	0.12376254
163	0x3e5738d6	0.21017775
164	0x3e2fc441	0.17164709
165	0xbd7ece67	-0.06220856
166	0x3d153882	0.036430843
167	0x3d0bc902	0.034127243
168	0x3ea6a677	0.32548878
169	0xbd9569da	-0.0729558
170	0xbe0c887a	-0.13723937
171	0x3c53a86b	0.012918572
172	0xbd61cbd6	-0.055126034
173	0x3d9d490e	0.0767995
174	0x3e1e1560	0.15437841
175	0xbe371617	-0.1787952
176	0x3d6e045a	0.05810962
177	0xbe414a84	-0.18876082
178	0xbe82c6d7	-0.25542328
179	0xbcd5ba4c	-0.02608981
180	0x3b776a75	0.0037752662
181	0x3da43d95	0.08019558
182	0x3e1acf27	0.15118085
183	0xbe2288ce	-0.158725
184	0x3d8e659e	0.06952976
185	0xbd7ec9cc	-0.062204167
186	0xbcc5d85e	-0.024151023
187	0x3d4786f6	0.048712693
188	0xbb3a1dfc	-0.002839922
189	0x39aaae6e	0.00032554887
190	0x3dde8434	0.108650595
191	0x3b3d844a	0.0028917962
192	0x3e0e1cc6	0.13878164
193	0xbeaa554a	-0.33268195
194	0xbddd0448	-0.10791832
195	0x3ba96768	0.0051697977
196	0xbe0d17fa	-0.13778678
197	0x3c5d0310	0.0134895
198	0xbdb39487	-0.08768564
199	0x3d04c13e	0.032410853
200	0x3d887036	0.066620275
201	0x3d3d72c3	0.046252023
202	0x3d7ce97f	0.061746117
203	0x3e5d0795	0.21584924
204	0xbc65bed1	-0.014022545
205	0xbe05ec10	-0.13078332
206	0x3e83dff2	0.25756794
207	0xbe9b2f61	-0.30309585
208	0x3e2890b3	0.16461448
209	0xbcf1c1e3	-0.029511398
210	0x3d2fe5fb	0.042943936
211	0xbe44f106	-0.19232568
212	0x3de2aef8	0.11068529
213	0xbdb93c69	-0.090447254
214	0x3e55965e	0.20858142
215	0x3df52853	0.11970582
216	0x3d5dc86c	0.054146215
217	0x3dc42eb8	0.095792234
218	0x3dda9ab7	0.10674041
219	0x3d93f6ba	0.07224794
220	0x3d37f87b	0.044914704
221	0x3d5511cb	0.05201892
222	0x3e0972b5	0.13422664
223	0x3ccf179f	0.025279818
224	0xbd62b320	-0.05534661
225	0xbe48e63a	-0.19619074
226	0xbdfbfe6f	-0.12304389
227	0xbd372dcb	-0.044721406
228	0xbdefbfba	-0.11706491
229	0x3c9a653f	0.018847106
230	0x3d81459a	0.063121036
231	0x3d021bcf	0.0317648
232	0xbe289172	-0.16461733
233	0x3e672c9e	0.22575614
234	0x3e1477d6	0.14498839
235	0xbe03ea4f	-0.1288235
236	0xbe484d04	-0.19560629
237	0xbac40ae8	-0.0014956864
238	0x3e1e67f3	0.15469341
239	0x3e481444	0.1953898
240	0x3c85bf5a	0.016326595
241	0x3d8a3e81	0.06750203
242	0x3e226970	0.15860534
243	0xbe43e161	-0.19128944
244	0xbd04d53d	-0.032429922
245	0x3e106f5e	0.14104983
246	0x3d16d068	0.036819845
247	0x3e16dbcb	0.14732282
248	0x3e1b0b76	0.15141091
249	0xbe1ac003	-0.15112309
250	0x3de649b7	0.11244529
251	0x3dfb684f	0.12275755
252	0xbe0be535	-0.13661654
253	0xbe00825d	-0.1254973
254	0x3d3ca852	0.04605896
255	0x3d018a4e	0.03162604

net/while/MatMul_5 f4 [20, 20]
0	0xbd2f716b	-0.042832773
1	0xbe2afd9c	-0.16698307
2	0xbe2c8d5d	-0.16850801
3	0xbdb8eaf4	-0.09029189
4	0xbde4b68e	-0.11167632
5	0xbb852378	-0.004063066
6	0xbdbdb7c1	-0.09263564
7	0x3e0a9c15	0.13536103
8	0xbc176c24	-0.009242091
9	0xbda6baf6	-0.08141129
10	0x3d991bed	0.074760295
11	0x3d3ec4df	0.04657447
12	0xbd327226	-0.04356589
13	0xbdce9532	-0.100870505
14	0xbcd71679	-0.026255833
15	0x3d9ee01f	0.077575915
16	0x3e0eff49	0.13964571
17	0xbd648c22	-0.055797704
18	0xbe73be50	-0.23803067
19	0xbd8bd300	-0.068273544
20	0xbd19c752	-0.037543602
21	0xbccc2140	-0.024918199
22	0xbe2944f1	-0.16530205
23	0x3e01a83d	0.12661834
24	0x3dcea187	0.10089403
25	0xbd3c6a1f	-0.045999642
26	0xbdfa5d6f	-0.12224852
27	0x3cac1e5e	0.021010574
28	0x3e8b1225	0.2716228
29	0x3dcf1bbf	0.10112714
30	0x3e03ad88	0.12859166
31	0xbd333f23	-0.043761384
32	0x3e144f73	0.14483432
33	0xbdaf7ce3	-0.08568742
34	0xbde9424d	-0.11389599
35	0xbe1e6835	-0.1546944
36	0xbe845b8c	-0.25851095
37	0x3c97ed20	0.018545687
38	0xbc6aad26	-0.014323508
39	0x3e187e27	0.14891873
40	0xbdaebc02	-0.085319534
41	0x3e28dd14	0.16490585
42	0x3df792c6	0.12088542
43	0x3e1c22f3	0.15247707
44	0xbcb9b694	-0.022670068
45	0xbd1be0ee	-0.038056307
46	0xbdf0ffaa	-0.11767514
47	0xbe005a81	-0.12534525
48	0xbdc69eeb	-0.0969828
49	0x3eb17d13	0.34665737
50	0x3e250b01	0.16117479
51	0x3cb87316	0.022515815
52	0xbdafe4ff	-0.085885994
53	0xbc10f59a	-0.0088476185
54	0xbe8fab24	-0.28060257
55	0xbd060c33	-0.032726478
56	0xbd316f06	-0.04331877
57	0xbd4aa0c9	-0.049469743
58	0xbdb089cd	-0.086200334
59	0xbe6158e4	-0.22006565
60	0x3db88f64	0.090117246
61	0x3d0603c3	0.03271843
62	0x3e2a270e	0.1661646
63	0xbe683eba	-0.22680178
64	0xbe15d0fa	-0.146305
65	0xbd878457	-0.06617039
66	0xbd8c94be	-0.06864308
67	0x3e076a86	0.13224229
68	0x3b73ebce	0.0037219408
69	0x3e08678c	0.1332075
70	0x3d84249d	0.06452296
71	0xbe29cdde	-0.16582438
72	0x3d69c2a4	0.05707039
73	0x3e40bd1d	0.18822141
74	0x3e551078	0.20807064
75	0xbd98a551	-0.074534066
76	0x3e4c52af	0.19953416
77	0x3d964e66	0.07339172
78	0xbd1d840c	-0.038456008
79	0xbbbaf950	-0.00570599
80	0xbd2bb1c8	-0.041917592
81	0xbe30bf76	-0.17260537
82	0x3ea92355	0.3303477
83	0x3d103211	0.035203997
84	0xbd97536b	-0.073889576
85	0x3e19fecb	0.15038602
86	0xbdd87de1	-0.105708845
87	0xbdd6cc5f	-0.104881994
88	0x3db11b73	0.08647814
89	0xbca4f282	-0.020135168
90	0xbddf8250	-0.10913527
91	0x3dfdf54f	0.124003045
92	0xbda3efc4	-0.08004716
93	0xbe48e68f	-0.19619201
94	0xbe0ce50a	-0.13759246
95	0xbd8e008e	-0.069336995
96	0x3c4fb51d	0.012677458
97	0x3dcbbf75	0.09948627
98	0x3c23c8a6	0.009996569
99	0x3d876d0e	0.066125974
100	0xbdade904	-0.0849171
101	0xbc5cfdac	-0.013488214
102	0xbc8feb05	-0.01756812
103	0x3cfdb4fa	0.030970085
104	0xbdb1e646	-0.08686499
105	0xbdcc1df7	-0.09966653
106	0x3e8b69d9	0.27229193
107	0x3d21d7ba	0.039512374
108	0xbd7a4570	-0.061101377
109	0xbd43681d	-0.047706712
110	0xbd45182f	-0.048118766
111	0x3e6f6be3	0.23381
112	0xbd2b0706	-0.041754745
113	0x3d259bc4	0.040431753
114	0x3df8ca64	0.12147978
115	0x3e5788b3	0.2104824
116	0xbe4c0f82	-0.19927791
117	0xbdc8f22a	-0.09811814
118	0x3cce7ac6	0.025205027
119	0x3d8a62a4	0.067570955
120	0xbcedf55a	-0.029047657
121	0x3d82a8d6	0.06379859
122	0xbcf081ef	-0.029358832
123	0x3d1aa2c8	0.037752897
124	0x3da63c13	0.08116927
125	0xbe0f4bf0	-0.13993812
126	0x3d91d4f1	0.071206935
127	0xbdae5cd4	-0.08513799
128	0xbdf87fa1	-0.12133718
129	0x3d283f8c	0.041076228
130	0x3e66c6da	0.22536793
131	0xbbaeb28c	-0.005331343
132	0x3d4d15bf	0.050069567
133	0xbe2d77c4	-0.16940218
134	0xbded2129	-0.115785904
135	0xbd6f2eee	-0.058394365
136	0x3dd78d7b	0.10525032
137	0x3d097887	0.03356221
138	0x3e05d826	0.13070735
139	0x3d42cc73	0.04755826
140	0xbdda9431	-0.106727965
141	0x3dfb173e	0.122602925
142	0x3deb26ab	0.11481985
143	0x3e39e7fc	0.18154901
144	0xbda316fd	-0.07963369
145	0x3ab07f60	0.0013465695
146	0xbe8a524a	-0.27015907
147	0xbc999db3	-0.018751955
148	0xbd05f675	-0.032705743
149	0xbe01f013	-0.12689237
150	0x3ce7691c	0.028248362
151	0xbca9b982	-0.02071834
152	0x3d766529	0.060155068
153	0xbd91f072	-0.071259394
154	0x3e4a2b75	0.1974314
155	0xbb63374a	-0.0034670406
156	0xbdaee093	-0.08538928
157	0x3df972c3	0.12180092
158	0x3d0e5c94	0.034756258
159	0x3d3d668d	0.04624038
160	0x3d220ec6	0.03956487
161	0x3d429e5f	0.047514316
162	0x3e8c1174	0.27357066
163	0x3dfebfef	0.12438952
164	0x3df0278c	0.11726293
165	0xbe0889e5	-0.13333853
166	0x3c61e680	0.013787866
167	0x3e1879c2	0.14890197
168	0x3c0c4e8c	0.008563649
169	0xbceefd08	-0.02917339
170	0x3dcee4b8	0.101022184
171	0x3e248f62	0.16070321
172	0xbe3cc3ba	-0.18434039
173	0x3ddec293	0.10876956
174	0xbe8223fb	-0.25418076
175	0x3e0016b5	0.12508662
176	0x3a32f48c	0.00068266015
177	0x3e580ff3	0.21099834
178	0x3e151311	0.14558055
179	0x3dde4b0e	0.10854159
180	0x3d26ca3d	0.040720213
181	0x3decc6e4	0.11561373
182	0xbe2452ee	-0.1604726
183	0xba6fe394	-0.0009151038
184	0x3d91f731	0.07127226
185	0xbe109c7f	-0.14122199
186	0x3ce7bb1c	0.028287463
187	0x3e0c7ea1	0.1372018
188	0xbd9de00d	-0.0770875
189	0xbdc30da4	-0.09524086
190	0xbe3a9307	-0.18220149
191	0x3dd9c6f2	0.10633649
192	0x3e6015cf	0.2188332
193	0x3d3e561b	0.046468835
194	0xbe885f00	-0.2663498
195	0xbdb3f3e7	-0.08786755
196	0xbd97f198	-0.07419127
197	0xbddd0c33	-0.107933424
198	0xbe65f83b	-0.22457974
199	0x3d1fa221	0.038972978
200	0xbe5dd868	-0.21664584
201	0x3e7a103c	0.24420255
202	0x3d18657e	0.037206165
203	0x3e46b64d	0.1940548
204	0xbcebdd00	-0.028791904
205	0x3d70ce88	0.058790714
206	0xbcf45a38	-0.029828176
207	0x3e08cd40	0.13359547
208	0xbd0dcdee	-0.034620218
209	0x3dfdb61f	0.123882525
210	0xbe785c7f	-0.24254034
211	0xbdd35b8e	-0.10320197
212	0xbdcacb1d	-0.09902022
213	0x3d0e8226	0.034792088
214	0xbdb0cc04	-0.08632663
215	0xbce6a9f8	-0.02815722
216	0xbd86b202	-0.06576921
217	0x3d8e1839	0.06938214
218	0x3dbe79a1	0.093005426
219	0xbe970e3a	-0.29503042
220	0x3d71a171	0.058991853
221	0xbc0b7b85	-0.008513336
222	0xbd7a361d	-0.061086763
223	0xbe309776	-0.17245278
224	0x3c4f0fd6	0.012638053
225	0xbd5337a4	-0.051566735
226	0xbe56a4c3	-0.20961289
227	0xbe0ad218	-0.13556707
228	0x3e317667	0.17330323
229	0x3d62a053	0.05532868
230	0xbd524630	-0.051336467
231	0x3d8da3b3	0.06915989
232	0xbd97d787	-0.074141555
233	0x3dc98f98	0.098418415
234	0x3db81002	0.08987428
235	0x3db2c3fb	0.087287866
236	0xbe629e41	-0.22130682
237	0x3d58e837	0.052955832
238	0xbe409a78	-0.18808925
239	0xbde9261b	-0.11384221
240	0x3e2d6d73	0.16936283
241	0xbe4707cf	-0.19436572
242	0xbd7c65ae	-0.061620407
243	0x3d06da1a	0.03292284
244	0x3e91a2ea	0.28444606
245	0xbd4ab17b	-0.049485665
246	0xbe671ed6	-0.22570357
247	0x3e2b0fd7	0.16705261
248	0x3d4fa98f	0.050698813
249	0xbe7aca1a	-0.24491158
250	0xbd335656	-0.04378351
251	0x3d2bcb59	0.041941974
252	0xbe13fe3a	-0.14452448
253	0x3dbc0e1e	0.0918238
254	0xbdfea690	-0.12434113
255	0x3ddd5aa6	0.108083054
